…
I0418 08:08:55.046151  7952 common.cpp:36] System entropy source not available, using fallback algorithm to generate seed instead.
I0418 08:08:55.327414  7952 net.cpp:51] Initializing net from parameters: 
name: "RA_CNN"
state {
  phase: TEST
  level: 0
  stage: ""
}
layer {
  name: "data"
  type: "Data"
  top: "data"
  top: "label"
  include {
    phase: TEST
  }
  transform_param {
    mirror: false
    crop_size: 448
    mean_value: 109.973
    mean_value: 127.338
    mean_value: 123.883
  }
  data_param {
    source: "\\\\6CR6228979\\D$\\data\\bird\\448_test_lmdb"
    batch_size: 1
    backend: LMDB
  }
}
layer {
  name: "conv1_1"
  type: "Convolution"
  bottom: "data"
  top: "conv1_1"
  param {
    lr_mult: 0
    decay_mult: 0
  }
  param {
    lr_mult: 0
    decay_mult: 0
  }
  convolution_param {
    num_output: 64
    pad: 1
    kernel_size: 3
    weight_filler {
      type: "gaussian"
      std: 0.01
    }
    bias_filler {
      type: "constant"
      value: 0
    }
  }
}
layer {
  name: "relu1_1"
  type: "ReLU"
  bottom: "conv1_1"
  top: "conv1_1"
}
layer {
  name: "conv1_2"
  type: "Convolution"
  bottom: "conv1_1"
  top: "conv1_2"
  param {
    lr_mult: 0
    decay_mult: 0
  }
  param {
    lr_mult: 0
    decay_mult: 0
  }
  convolution_param {
    num_output: 64
    pad: 1
    kernel_size: 3
    weight_filler {
      type: "gaussian"
      std: 0.01
    }
    bias_filler {
      type: "constant"
      value: 0
    }
  }
}
layer {
  name: "relu1_2"
  type: "ReLU"
  bottom: "conv1_2"
  top: "conv1_2"
}
layer {
  name: "pool1"
  type: "Pooling"
  bottom: "conv1_2"
  top: "pool1"
  pooling_param {
    pool: MAX
    kernel_size: 2
    stride: 2
  }
}
layer {
  name: "conv2_1"
  type: "Convolution"
  bottom: "pool1"
  top: "conv2_1"
  param {
    lr_mult: 0
    decay_mult: 0
  }
  param {
    lr_mult: 0
    decay_mult: 0
  }
  convolution_param {
    num_output: 128
    pad: 1
    kernel_size: 3
    weight_filler {
      type: "gaussian"
      std: 0.01
    }
    bias_filler {
      type: "constant"
      value: 0
    }
  }
}
layer {
  name: "relu2_1"
  type: "ReLU"
  bottom: "conv2_1"
  top: "conv2_1"
}
layer {
  name: "conv2_2"
  type: "Convolution"
  bottom: "conv2_1"
  top: "conv2_2"
  param {
    lr_mult: 0
    decay_mult: 0
  }
  param {
    lr_mult: 0
    decay_mult: 0
  }
  convolution_param {
    num_output: 128
    pad: 1
    kernel_size: 3
    weight_filler {
      type: "gaussian"
      std: 0.01
    }
    bias_filler {
      type: "constant"
      value: 0
    }
  }
}
layer {
  name: "relu2_2"
  type: "ReLU"
  bottom: "conv2_2"
  top: "conv2_2"
}
layer {
  name: "pool2"
  type: "Pooling"
  bottom: "conv2_2"
  top: "pool2"
  pooling_param {
    pool: MAX
    kernel_size: 2
    stride: 2
  }
}
layer {
  name: "conv3_1"
  type: "Convolution"
  bottom: "pool2"
  top: "conv3_1"
  param {
    lr_mult: 0
    decay_mult: 0
  }
  param {
    lr_mult: 0
    decay_mult: 0
  }
  convolution_param {
    num_output: 256
    pad: 1
    kernel_size: 3
    weight_filler {
      type: "gaussian"
      std: 0.01
    }
    bias_filler {
      type: "constant"
      value: 0
    }
  }
}
layer {
  name: "relu3_1"
  type: "ReLU"
  bottom: "conv3_1"
  top: "conv3_1"
}
layer {
  name: "conv3_2"
  type: "Convolution"
  bottom: "conv3_1"
  top: "conv3_2"
  param {
    lr_mult: 0
    decay_mult: 0
  }
  param {
    lr_mult: 0
    decay_mult: 0
  }
  convolution_param {
    num_output: 256
    pad: 1
    kernel_size: 3
    weight_filler {
      type: "gaussian"
      std: 0.01
    }
    bias_filler {
      type: "constant"
      value: 0
    }
  }
}
layer {
  name: "relu3_2"
  type: "ReLU"
  bottom: "conv3_2"
  top: "conv3_2"
}
layer {
  name: "conv3_3"
  type: "Convolution"
  bottom: "conv3_2"
  top: "conv3_3"
  param {
    lr_mult: 0
    decay_mult: 0
  }
  param {
    lr_mult: 0
    decay_mult: 0
  }
  convolution_param {
    num_output: 256
    pad: 1
    kernel_size: 3
    weight_filler {
      type: "gaussian"
      std: 0.01
    }
    bias_filler {
      type: "constant"
      value: 0
    }
  }
}
layer {
  name: "relu3_3"
  type: "ReLU"
  bottom: "conv3_3"
  top: "conv3_3"
}
layer {
  name: "conv3_4"
  type: "Convolution"
  bottom: "conv3_3"
  top: "conv3_4"
  param {
    lr_mult: 0
    decay_mult: 0
  }
  param {
    lr_mult: 0
    decay_mult: 0
  }
  convolution_param {
    num_output: 256
    pad: 1
    kernel_size: 3
    weight_filler {
      type: "gaussian"
      std: 0.01
    }
    bias_filler {
      type: "constant"
      value: 0
    }
  }
}
layer {
  name: "relu3_4"
  type: "ReLU"
  bottom: "conv3_4"
  top: "conv3_4"
}
layer {
  name: "pool3"
  type: "Pooling"
  bottom: "conv3_4"
  top: "pool3"
  pooling_param {
    pool: MAX
    kernel_size: 2
    stride: 2
  }
}
layer {
  name: "conv4_1"
  type: "Convolution"
  bottom: "pool3"
  top: "conv4_1"
  param {
    lr_mult: 0
    decay_mult: 0
  }
  param {
    lr_mult: 0
    decay_mult: 0
  }
  convolution_param {
    num_output: 512
    pad: 1
    kernel_size: 3
    weight_filler {
      type: "gaussian"
      std: 0.01
    }
    bias_filler {
      type: "constant"
      value: 0
    }
  }
}
layer {
  name: "relu4_1"
  type: "ReLU"
  bottom: "conv4_1"
  top: "conv4_1"
}
layer {
  name: "conv4_2"
  type: "Convolution"
  bottom: "conv4_1"
  top: "conv4_2"
  param {
    lr_mult: 0
    decay_mult: 0
  }
  param {
    lr_mult: 0
    decay_mult: 0
  }
  convolution_param {
    num_output: 512
    pad: 1
    kernel_size: 3
    weight_filler {
      type: "gaussian"
      std: 0.01
    }
    bias_filler {
      type: "constant"
      value: 0
    }
  }
}
layer {
  name: "relu4_2"
  type: "ReLU"
  bottom: "conv4_2"
  top: "conv4_2"
}
layer {
  name: "conv4_3"
  type: "Convolution"
  bottom: "conv4_2"
  top: "conv4_3"
  param {
    lr_mult: 0
    decay_mult: 0
  }
  param {
    lr_mult: 0
    decay_mult: 0
  }
  convolution_param {
    num_output: 512
    pad: 1
    kernel_size: 3
    weight_filler {
      type: "gaussian"
      std: 0.01
    }
    bias_filler {
      type: "constant"
      value: 0
    }
  }
}
layer {
  name: "relu4_3"
  type: "ReLU"
  bottom: "conv4_3"
  top: "conv4_3"
}
layer {
  name: "conv4_4"
  type: "Convolution"
  bottom: "conv4_3"
  top: "conv4_4"
  param {
    lr_mult: 0
    decay_mult: 0
  }
  param {
    lr_mult: 0
    decay_mult: 0
  }
  convolution_param {
    num_output: 512
    pad: 1
    kernel_size: 3
    weight_filler {
      type: "gaussian"
      std: 0.01
    }
    bias_filler {
      type: "constant"
      value: 0
    }
  }
}
layer {
  name: "relu4_4"
  type: "ReLU"
  bottom: "conv4_4"
  top: "conv4_4"
}
layer {
  name: "pool4"
  type: "Pooling"
  bottom: "conv4_4"
  top: "pool4"
  pooling_param {
    pool: MAX
    kernel_size: 2
    stride: 2
  }
}
layer {
  name: "conv5_1"
  type: "Convolution"
  bottom: "pool4"
  top: "conv5_1"
  param {
    lr_mult: 0
    decay_mult: 0
  }
  param {
    lr_mult: 0
    decay_mult: 0
  }
  convolution_param {
    num_output: 512
    pad: 1
    kernel_size: 3
    weight_filler {
      type: "gaussian"
      std: 0.01
    }
    bias_filler {
      type: "constant"
      value: 0
    }
  }
}
layer {
  name: "relu5_1"
  type: "ReLU"
  bottom: "conv5_1"
  top: "conv5_1"
}
layer {
  name: "conv5_2"
  type: "Convolution"
  bottom: "conv5_1"
  top: "conv5_2"
  param {
    lr_mult: 0
    decay_mult: 0
  }
  param {
    lr_mult: 0
    decay_mult: 0
  }
  convolution_param {
    num_output: 512
    pad: 1
    kernel_size: 3
    weight_filler {
      type: "gaussian"
      std: 0.01
    }
    bias_filler {
      type: "constant"
      value: 0
    }
  }
}
layer {
  name: "relu5_2"
  type: "ReLU"
  bottom: "conv5_2"
  top: "conv5_2"
}
layer {
  name: "conv5_3"
  type: "Convolution"
  bottom: "conv5_2"
  top: "conv5_3"
  param {
    lr_mult: 0
    decay_mult: 0
  }
  param {
    lr_mult: 0
    decay_mult: 0
  }
  convolution_param {
    num_output: 512
    pad: 1
    kernel_size: 3
    weight_filler {
      type: "gaussian"
      std: 0.01
    }
    bias_filler {
      type: "constant"
      value: 0
    }
  }
}
layer {
  name: "relu5_3"
  type: "ReLU"
  bottom: "conv5_3"
  top: "conv5_3"
}
layer {
  name: "conv5_4"
  type: "Convolution"
  bottom: "conv5_3"
  top: "conv5_4"
  param {
    lr_mult: 0
    decay_mult: 0
  }
  param {
    lr_mult: 0
    decay_mult: 0
  }
  convolution_param {
    num_output: 512
    pad: 1
    kernel_size: 3
    weight_filler {
      type: "gaussian"
      std: 0.01
    }
    bias_filler {
      type: "constant"
      value: 0
    }
  }
}
layer {
  name: "relu5_4"
  type: "ReLU"
  bottom: "conv5_4"
  top: "conv5_4"
}
layer {
  name: "pool5"
  type: "Pooling"
  bottom: "conv5_4"
  top: "pool5"
  pooling_param {
    pool: AVE
    kernel_size: 28
    stride: 28
  }
}
layer {
  name: "anp_pool"
  type: "Pooling"
  bottom: "conv5_4"
  top: "anp_pool"
  pooling_param {
    pool: MAX
    kernel_size: 2
    stride: 2
  }
}
layer {
  name: "get_abc1"
  type: "InnerProduct"
  bottom: "anp_pool"
  top: "get_abc1"
  param {
    lr_mult: 0
    decay_mult: 0
  }
  param {
    lr_mult: 0
    decay_mult: 0
  }
  inner_product_param {
    num_output: 1024
    weight_filler {
      type: "gaussian"
      std: 0.001
    }
    bias_filler {
      type: "constant"
      value: 0
    }
  }
}
layer {
  name: "tanh"
  type: "TanH"
  bottom: "get_abc1"
  top: "tanh"
}
layer {
  name: "get_abc2"
  type: "InnerProduct"
  bottom: "tanh"
  top: "get_abc2"
  param {
    lr_mult: 0
    decay_mult: 0
  }
  param {
    lr_mult: 0
    decay_mult: 0
  }
  inner_product_param {
    num_output: 3
    weight_filler {
      type: "gaussian"
      std: 0.001
    }
    bias_filler {
      type: "constant"
      value: 0
    }
  }
}
layer {
  name: "sigmoid"
  type: "Sigmoid"
  bottom: "get_abc2"
  top: "sig_abc"
}
layer {
  name: "get448"
  type: "Power"
  bottom: "sig_abc"
  top: "get448"
  power_param {
    power: 1
    scale: 448
    shift: 0
  }
}
layer {
  name: "atten_crop"
  type: "AttentionCrop"
  bottom: "data"
  bottom: "get448"
  top: "scale2_data"
}
layer {
  name: "conv1_1_A"
  type: "Convolution"
  bottom: "scale2_data"
  top: "conv1_1_A"
  param {
    lr_mult: 0
    decay_mult: 0
  }
  param {
    lr_mult: 0
    decay_mult: 0
  }
  convolution_param {
    num_output: 64
    pad: 1
    kernel_size: 3
    weight_filler {
      type: "gaussian"
      std: 0.01
    }
    bias_filler {
      type: "constant"
      value: 0
    }
  }
}
layer {
  name: "relu1_1_A"
  type: "ReLU"
  bottom: "conv1_1_A"
  top: "conv1_1_A"
}
layer {
  name: "conv1_2_A"
  type: "Convolution"
  bottom: "conv1_1_A"
  top: "conv1_2_A"
  param {
    lr_mult: 0
    decay_mult: 0
  }
  param {
    lr_mult: 0
    decay_mult: 0
  }
  convolution_param {
    num_output: 64
    pad: 1
    kernel_size: 3
    weight_filler {
      type: "gaussian"
      std: 0.01
    }
    bias_filler {
      type: "constant"
      value: 0
    }
  }
}
layer {
  name: "relu1_2_A"
  type: "ReLU"
  bottom: "conv1_2_A"
  top: "conv1_2_A"
}
layer {
  name: "pool1_A"
  type: "Pooling"
  bottom: "conv1_2_A"
  top: "pool1_A"
  pooling_param {
    pool: MAX
    kernel_size: 2
    stride: 2
  }
}
layer {
  name: "conv2_1_A"
  type: "Convolution"
  bottom: "pool1_A"
  top: "conv2_1_A"
  param {
    lr_mult: 0
    decay_mult: 0
  }
  param {
    lr_mult: 0
    decay_mult: 0
  }
  convolution_param {
    num_output: 128
    pad: 1
    kernel_size: 3
    weight_filler {
      type: "gaussian"
      std: 0.01
    }
    bias_filler {
      type: "constant"
      value: 0
    }
  }
}
layer {
  name: "relu2_1_A"
  type: "ReLU"
  bottom: "conv2_1_A"
  top: "conv2_1_A"
}
layer {
  name: "conv2_2_A"
  type: "Convolution"
  bottom: "conv2_1_A"
  top: "conv2_2_A"
  param {
    lr_mult: 0
    decay_mult: 0
  }
  param {
    lr_mult: 0
    decay_mult: 0
  }
  convolution_param {
    num_output: 128
    pad: 1
    kernel_size: 3
    weight_filler {
      type: "gaussian"
      std: 0.01
    }
    bias_filler {
      type: "constant"
      value: 0
    }
  }
}
layer {
  name: "relu2_2_A"
  type: "ReLU"
  bottom: "conv2_2_A"
  top: "conv2_2_A"
}
layer {
  name: "pool2_A"
  type: "Pooling"
  bottom: "conv2_2_A"
  top: "pool2_A"
  pooling_param {
    pool: MAX
    kernel_size: 2
    stride: 2
  }
}
layer {
  name: "conv3_1_A"
  type: "Convolution"
  bottom: "pool2_A"
  top: "conv3_1_A"
  param {
    lr_mult: 0
    decay_mult: 0
  }
  param {
    lr_mult: 0
    decay_mult: 0
  }
  convolution_param {
    num_output: 256
    pad: 1
    kernel_size: 3
    weight_filler {
      type: "gaussian"
      std: 0.01
    }
    bias_filler {
      type: "constant"
      value: 0
    }
  }
}
layer {
  name: "relu3_1_A"
  type: "ReLU"
  bottom: "conv3_1_A"
  top: "conv3_1_A"
}
layer {
  name: "conv3_2_A"
  type: "Convolution"
  bottom: "conv3_1_A"
  top: "conv3_2_A"
  param {
    lr_mult: 0
    decay_mult: 0
  }
  param {
    lr_mult: 0
    decay_mult: 0
  }
  convolution_param {
    num_output: 256
    pad: 1
    kernel_size: 3
    weight_filler {
      type: "gaussian"
      std: 0.01
    }
    bias_filler {
      type: "constant"
      value: 0
    }
  }
}
layer {
  name: "relu3_2_A"
  type: "ReLU"
  bottom: "conv3_2_A"
  top: "conv3_2_A"
}
layer {
  name: "conv3_3_A"
  type: "Convolution"
  bottom: "conv3_2_A"
  top: "conv3_3_A"
  param {
    lr_mult: 0
    decay_mult: 0
  }
  param {
    lr_mult: 0
    decay_mult: 0
  }
  convolution_param {
    num_output: 256
    pad: 1
    kernel_size: 3
    weight_filler {
      type: "gaussian"
      std: 0.01
    }
    bias_filler {
      type: "constant"
      value: 0
    }
  }
}
layer {
  name: "relu3_3_A"
  type: "ReLU"
  bottom: "conv3_3_A"
  top: "conv3_3_A"
}
layer {
  name: "conv3_4_A"
  type: "Convolution"
  bottom: "conv3_3_A"
  top: "conv3_4_A"
  param {
    lr_mult: 0
    decay_mult: 0
  }
  param {
    lr_mult: 0
    decay_mult: 0
  }
  convolution_param {
    num_output: 256
    pad: 1
    kernel_size: 3
    weight_filler {
      type: "gaussian"
      std: 0.01
    }
    bias_filler {
      type: "constant"
      value: 0
    }
  }
}
layer {
  name: "relu3_4_A"
  type: "ReLU"
  bottom: "conv3_4_A"
  top: "conv3_4_A"
}
layer {
  name: "pool3_A"
  type: "Pooling"
  bottom: "conv3_4_A"
  top: "pool3_A"
  pooling_param {
    pool: MAX
    kernel_size: 2
    stride: 2
  }
}
layer {
  name: "conv4_1_A"
  type: "Convolution"
  bottom: "pool3_A"
  top: "conv4_1_A"
  param {
    lr_mult: 0
    decay_mult: 0
  }
  param {
    lr_mult: 0
    decay_mult: 0
  }
  convolution_param {
    num_output: 512
    pad: 1
    kernel_size: 3
    weight_filler {
      type: "gaussian"
      std: 0.01
    }
    bias_filler {
      type: "constant"
      value: 0
    }
  }
}
layer {
  name: "relu4_1_A"
  type: "ReLU"
  bottom: "conv4_1_A"
  top: "conv4_1_A"
}
layer {
  name: "conv4_2_A"
  type: "Convolution"
  bottom: "conv4_1_A"
  top: "conv4_2_A"
  param {
    lr_mult: 0
    decay_mult: 0
  }
  param {
    lr_mult: 0
    decay_mult: 0
  }
  convolution_param {
    num_output: 512
    pad: 1
    kernel_size: 3
    weight_filler {
      type: "gaussian"
      std: 0.01
    }
    bias_filler {
      type: "constant"
      value: 0
    }
  }
}
layer {
  name: "relu4_2_A"
  type: "ReLU"
  bottom: "conv4_2_A"
  top: "conv4_2_A"
}
layer {
  name: "conv4_3_A"
  type: "Convolution"
  bottom: "conv4_2_A"
  top: "conv4_3_A"
  param {
    lr_mult: 0
    decay_mult: 0
  }
  param {
    lr_mult: 0
    decay_mult: 0
  }
  convolution_param {
    num_output: 512
    pad: 1
    kernel_size: 3
    weight_filler {
      type: "gaussian"
      std: 0.01
    }
    bias_filler {
      type: "constant"
      value: 0
    }
  }
}
layer {
  name: "relu4_3_A"
  type: "ReLU"
  bottom: "conv4_3_A"
  top: "conv4_3_A"
}
layer {
  name: "conv4_4_A"
  type: "Convolution"
  bottom: "conv4_3_A"
  top: "conv4_4_A"
  param {
    lr_mult: 0
    decay_mult: 0
  }
  param {
    lr_mult: 0
    decay_mult: 0
  }
  convolution_param {
    num_output: 512
    pad: 1
    kernel_size: 3
    weight_filler {
      type: "gaussian"
      std: 0.01
    }
    bias_filler {
      type: "constant"
      value: 0
    }
  }
}
layer {
  name: "relu4_4_A"
  type: "ReLU"
  bottom: "conv4_4_A"
  top: "conv4_4_A"
}
layer {
  name: "pool4_A"
  type: "Pooling"
  bottom: "conv4_4_A"
  top: "pool4_A"
  pooling_param {
    pool: MAX
    kernel_size: 2
    stride: 2
  }
}
layer {
  name: "conv5_1_A"
  type: "Convolution"
  bottom: "pool4_A"
  top: "conv5_1_A"
  param {
    lr_mult: 0
    decay_mult: 0
  }
  param {
    lr_mult: 0
    decay_mult: 0
  }
  convolution_param {
    num_output: 512
    pad: 1
    kernel_size: 3
    weight_filler {
      type: "gaussian"
      std: 0.01
    }
    bias_filler {
      type: "constant"
      value: 0
    }
  }
}
layer {
  name: "relu5_1_A"
  type: "ReLU"
  bottom: "conv5_1_A"
  top: "conv5_1_A"
}
layer {
  name: "conv5_2_A"
  type: "Convolution"
  bottom: "conv5_1_A"
  top: "conv5_2_A"
  param {
    lr_mult: 0
    decay_mult: 0
  }
  param {
    lr_mult: 0
    decay_mult: 0
  }
  convolution_param {
    num_output: 512
    pad: 1
    kernel_size: 3
    weight_filler {
      type: "gaussian"
      std: 0.01
    }
    bias_filler {
      type: "constant"
      value: 0
    }
  }
}
layer {
  name: "relu5_2_A"
  type: "ReLU"
  bottom: "conv5_2_A"
  top: "conv5_2_A"
}
layer {
  name: "conv5_3_A"
  type: "Convolution"
  bottom: "conv5_2_A"
  top: "conv5_3_A"
  param {
    lr_mult: 0
    decay_mult: 0
  }
  param {
    lr_mult: 0
    decay_mult: 0
  }
  convolution_param {
    num_output: 512
    pad: 1
    kernel_size: 3
    weight_filler {
      type: "gaussian"
      std: 0.01
    }
    bias_filler {
      type: "constant"
      value: 0
    }
  }
}
layer {
  name: "relu5_3_A"
  type: "ReLU"
  bottom: "conv5_3_A"
  top: "conv5_3_A"
}
layer {
  name: "conv5_4_A"
  type: "Convolution"
  bottom: "conv5_3_A"
  top: "conv5_4_A"
  param {
    lr_mult: 0
    decay_mult: 0
  }
  param {
    lr_mult: 0
    decay_mult: 0
  }
  convolution_param {
    num_output: 512
    pad: 1
    kernel_size: 3
    weight_filler {
      type: "gaussian"
      std: 0.01
    }
    bias_filler {
      type: "constant"
      value: 0
    }
  }
}
layer {
  name: "relu5_4_A"
  type: "ReLU"
  bottom: "conv5_4_A"
  top: "conv5_4_A"
}
layer {
  name: "pool5_A"
  type: "Pooling"
  bottom: "conv5_4_A"
  top: "pool5_A"
  pooling_param {
    pool: AVE
    kernel_size: 14
    stride: 14
  }
}
layer {
  name: "get_abc1_A"
  type: "InnerProduct"
  bottom: "conv5_4_A"
  top: "get_abc1_A"
  param {
    lr_mult: 0
    decay_mult: 0
  }
  param {
    lr_mult: 0
    decay_mult: 0
  }
  inner_product_param {
    num_output: 1024
    weight_filler {
      type: "gaussian"
      std: 0.001
    }
    bias_filler {
      type: "constant"
      value: 0
    }
  }
}
layer {
  name: "tanh_A"
  type: "TanH"
  bottom: "get_abc1_A"
  top: "tanh_A"
}
layer {
  name: "get_abc2_A"
  type: "InnerProduct"
  bottom: "tanh_A"
  top: "get_abc2_A"
  param {
    lr_mult: 0
    decay_mult: 0
  }
  param {
    lr_mult: 0
    decay_mult: 0
  }
  inner_product_param {
    num_output: 3
    weight_filler {
      type: "gaussian"
      std: 0.001
    }
    bias_filler {
      type: "constant"
      value: 0
    }
  }
}
layer {
  name: "sigmoid_A"
  type: "Sigmoid"
  bottom: "get_abc2_A"
  top: "sig_abc_A"
}
layer {
  name: "get224"
  type: "Power"
  bottom: "sig_abc_A"
  top: "get224"
  power_param {
    power: 1
    scale: 224
    shift: 0
  }
}
layer {
  name: "atten_crop_A"
  type: "AttentionCrop"
  bottom: "scale2_data"
  bottom: "get224"
  top: "scale3_data"
}
layer {
  name: "conv1_1_A_A"
  type: "Convolution"
  bottom: "scale3_data"
  top: "conv1_1_A_A"
  param {
    lr_mult: 0
    decay_mult: 0
  }
  param {
    lr_mult: 0
    decay_mult: 0
  }
  convolution_param {
    num_output: 64
    pad: 1
    kernel_size: 3
    weight_filler {
      type: "gaussian"
      std: 0.01
    }
    bias_filler {
      type: "constant"
      value: 0
    }
  }
}
layer {
  name: "relu1_1_A_A"
  type: "ReLU"
  bottom: "conv1_1_A_A"
  top: "conv1_1_A_A"
}
layer {
  name: "conv1_2_A_A"
  type: "Convolution"
  bottom: "conv1_1_A_A"
  top: "conv1_2_A_A"
  param {
    lr_mult: 0
    decay_mult: 0
  }
  param {
    lr_mult: 0
    decay_mult: 0
  }
  convolution_param {
    num_output: 64
    pad: 1
    kernel_size: 3
    weight_filler {
      type: "gaussian"
      std: 0.01
    }
    bias_filler {
      type: "constant"
      value: 0
    }
  }
}
layer {
  name: "relu1_2_A_A"
  type: "ReLU"
  bottom: "conv1_2_A_A"
  top: "conv1_2_A_A"
}
layer {
  name: "pool1_A_A"
  type: "Pooling"
  bottom: "conv1_2_A_A"
  top: "pool1_A_A"
  pooling_param {
    pool: MAX
    kernel_size: 2
    stride: 2
  }
}
layer {
  name: "conv2_1_A_A"
  type: "Convolution"
  bottom: "pool1_A_A"
  top: "conv2_1_A_A"
  param {
    lr_mult: 0
    decay_mult: 0
  }
  param {
    lr_mult: 0
    decay_mult: 0
  }
  convolution_param {
    num_output: 128
    pad: 1
    kernel_size: 3
    weight_filler {
      type: "gaussian"
      std: 0.01
    }
    bias_filler {
      type: "constant"
      value: 0
    }
  }
}
layer {
  name: "relu2_1_A_A"
  type: "ReLU"
  bottom: "conv2_1_A_A"
  top: "conv2_1_A_A"
}
layer {
  name: "conv2_2_A_A"
  type: "Convolution"
  bottom: "conv2_1_A_A"
  top: "conv2_2_A_A"
  param {
    lr_mult: 0
    decay_mult: 0
  }
  param {
    lr_mult: 0
    decay_mult: 0
  }
  convolution_param {
    num_output: 128
    pad: 1
    kernel_size: 3
    weight_filler {
      type: "gaussian"
      std: 0.01
    }
    bias_filler {
      type: "constant"
      value: 0
    }
  }
}
layer {
  name: "relu2_2_A_A"
  type: "ReLU"
  bottom: "conv2_2_A_A"
  top: "conv2_2_A_A"
}
layer {
  name: "pool2_A_A"
  type: "Pooling"
  bottom: "conv2_2_A_A"
  top: "pool2_A_A"
  pooling_param {
    pool: MAX
    kernel_size: 2
    stride: 2
  }
}
layer {
  name: "conv3_1_A_A"
  type: "Convolution"
  bottom: "pool2_A_A"
  top: "conv3_1_A_A"
  param {
    lr_mult: 0
    decay_mult: 0
  }
  param {
    lr_mult: 0
    decay_mult: 0
  }
  convolution_param {
    num_output: 256
    pad: 1
    kernel_size: 3
    weight_filler {
      type: "gaussian"
      std: 0.01
    }
    bias_filler {
      type: "constant"
      value: 0
    }
  }
}
layer {
  name: "relu3_1_A_A"
  type: "ReLU"
  bottom: "conv3_1_A_A"
  top: "conv3_1_A_A"
}
layer {
  name: "conv3_2_A_A"
  type: "Convolution"
  bottom: "conv3_1_A_A"
  top: "conv3_2_A_A"
  param {
    lr_mult: 0
    decay_mult: 0
  }
  param {
    lr_mult: 0
    decay_mult: 0
  }
  convolution_param {
    num_output: 256
    pad: 1
    kernel_size: 3
    weight_filler {
      type: "gaussian"
      std: 0.01
    }
    bias_filler {
      type: "constant"
      value: 0
    }
  }
}
layer {
  name: "relu3_2_A_A"
  type: "ReLU"
  bottom: "conv3_2_A_A"
  top: "conv3_2_A_A"
}
layer {
  name: "conv3_3_A_A"
  type: "Convolution"
  bottom: "conv3_2_A_A"
  top: "conv3_3_A_A"
  param {
    lr_mult: 0
    decay_mult: 0
  }
  param {
    lr_mult: 0
    decay_mult: 0
  }
  convolution_param {
    num_output: 256
    pad: 1
    kernel_size: 3
    weight_filler {
      type: "gaussian"
      std: 0.01
    }
    bias_filler {
      type: "constant"
      value: 0
    }
  }
}
layer {
  name: "relu3_3_A_A"
  type: "ReLU"
  bottom: "conv3_3_A_A"
  top: "conv3_3_A_A"
}
layer {
  name: "conv3_4_A_A"
  type: "Convolution"
  bottom: "conv3_3_A_A"
  top: "conv3_4_A_A"
  param {
    lr_mult: 0
    decay_mult: 0
  }
  param {
    lr_mult: 0
    decay_mult: 0
  }
  convolution_param {
    num_output: 256
    pad: 1
    kernel_size: 3
    weight_filler {
      type: "gaussian"
      std: 0.01
    }
    bias_filler {
      type: "constant"
      value: 0
    }
  }
}
layer {
  name: "relu3_4_A_A"
  type: "ReLU"
  bottom: "conv3_4_A_A"
  top: "conv3_4_A_A"
}
layer {
  name: "pool3_A_A"
  type: "Pooling"
  bottom: "conv3_4_A_A"
  top: "pool3_A_A"
  pooling_param {
    pool: MAX
    kernel_size: 2
    stride: 2
  }
}
layer {
  name: "conv4_1_A_A"
  type: "Convolution"
  bottom: "pool3_A_A"
  top: "conv4_1_A_A"
  param {
    lr_mult: 0
    decay_mult: 0
  }
  param {
    lr_mult: 0
    decay_mult: 0
  }
  convolution_param {
    num_output: 512
    pad: 1
    kernel_size: 3
    weight_filler {
      type: "gaussian"
      std: 0.01
    }
    bias_filler {
      type: "constant"
      value: 0
    }
  }
}
layer {
  name: "relu4_1_A_A"
  type: "ReLU"
  bottom: "conv4_1_A_A"
  top: "conv4_1_A_A"
}
layer {
  name: "conv4_2_A_A"
  type: "Convolution"
  bottom: "conv4_1_A_A"
  top: "conv4_2_A_A"
  param {
    lr_mult: 0
    decay_mult: 0
  }
  param {
    lr_mult: 0
    decay_mult: 0
  }
  convolution_param {
    num_output: 512
    pad: 1
    kernel_size: 3
    weight_filler {
      type: "gaussian"
      std: 0.01
    }
    bias_filler {
      type: "constant"
      value: 0
    }
  }
}
layer {
  name: "relu4_2_A_A"
  type: "ReLU"
  bottom: "conv4_2_A_A"
  top: "conv4_2_A_A"
}
layer {
  name: "conv4_3_A_A"
  type: "Convolution"
  bottom: "conv4_2_A_A"
  top: "conv4_3_A_A"
  param {
    lr_mult: 0
    decay_mult: 0
  }
  param {
    lr_mult: 0
    decay_mult: 0
  }
  convolution_param {
    num_output: 512
    pad: 1
    kernel_size: 3
    weight_filler {
      type: "gaussian"
      std: 0.01
    }
    bias_filler {
      type: "constant"
      value: 0
    }
  }
}
layer {
  name: "relu4_3_A_A"
  type: "ReLU"
  bottom: "conv4_3_A_A"
  top: "conv4_3_A_A"
}
layer {
  name: "conv4_4_A_A"
  type: "Convolution"
  bottom: "conv4_3_A_A"
  top: "conv4_4_A_A"
  param {
    lr_mult: 0
    decay_mult: 0
  }
  param {
    lr_mult: 0
    decay_mult: 0
  }
  convolution_param {
    num_output: 512
    pad: 1
    kernel_size: 3
    weight_filler {
      type: "gaussian"
      std: 0.01
    }
    bias_filler {
      type: "constant"
      value: 0
    }
  }
}
layer {
  name: "relu4_4_A_A"
  type: "ReLU"
  bottom: "conv4_4_A_A"
  top: "conv4_4_A_A"
}
layer {
  name: "pool4_A_A"
  type: "Pooling"
  bottom: "conv4_4_A_A"
  top: "pool4_A_A"
  pooling_param {
    pool: MAX
    kernel_size: 2
    stride: 2
  }
}
layer {
  name: "conv5_1_A_A"
  type: "Convolution"
  bottom: "pool4_A_A"
  top: "conv5_1_A_A"
  param {
    lr_mult: 0
    decay_mult: 0
  }
  param {
    lr_mult: 0
    decay_mult: 0
  }
  convolution_param {
    num_output: 512
    pad: 1
    kernel_size: 3
    weight_filler {
      type: "gaussian"
      std: 0.01
    }
    bias_filler {
      type: "constant"
      value: 0
    }
  }
}
layer {
  name: "relu5_1_A_A"
  type: "ReLU"
  bottom: "conv5_1_A_A"
  top: "conv5_1_A_A"
}
layer {
  name: "conv5_2_A_A"
  type: "Convolution"
  bottom: "conv5_1_A_A"
  top: "conv5_2_A_A"
  param {
    lr_mult: 0
    decay_mult: 0
  }
  param {
    lr_mult: 0
    decay_mult: 0
  }
  convolution_param {
    num_output: 512
    pad: 1
    kernel_size: 3
    weight_filler {
      type: "gaussian"
      std: 0.01
    }
    bias_filler {
      type: "constant"
      value: 0
    }
  }
}
layer {
  name: "relu5_2_A_A"
  type: "ReLU"
  bottom: "conv5_2_A_A"
  top: "conv5_2_A_A"
}
layer {
  name: "conv5_3_A_A"
  type: "Convolution"
  bottom: "conv5_2_A_A"
  top: "conv5_3_A_A"
  param {
    lr_mult: 0
    decay_mult: 0
  }
  param {
    lr_mult: 0
    decay_mult: 0
  }
  convolution_param {
    num_output: 512
    pad: 1
    kernel_size: 3
    weight_filler {
      type: "gaussian"
      std: 0.01
    }
    bias_filler {
      type: "constant"
      value: 0
    }
  }
}
layer {
  name: "relu5_3_A_A"
  type: "ReLU"
  bottom: "conv5_3_A_A"
  top: "conv5_3_A_A"
}
layer {
  name: "conv5_4_A_A"
  type: "Convolution"
  bottom: "conv5_3_A_A"
  top: "conv5_4_A_A"
  param {
    lr_mult: 0
    decay_mult: 0
  }
  param {
    lr_mult: 0
    decay_mult: 0
  }
  convolution_param {
    num_output: 512
    pad: 1
    kernel_size: 3
    weight_filler {
      type: "gaussian"
      std: 0.01
    }
    bias_filler {
      type: "constant"
      value: 0
    }
  }
}
layer {
  name: "relu5_4_A_A"
  type: "ReLU"
  bottom: "conv5_4_A_A"
  top: "conv5_4_A_A"
}
layer {
  name: "pool5_A_A"
  type: "Pooling"
  bottom: "conv5_4_A_A"
  top: "pool5_A_A"
  pooling_param {
    pool: AVE
    kernel_size: 14
    stride: 14
  }
}
layer {
  name: "reshape1"
  type: "Reshape"
  bottom: "pool5"
  top: "reshape1"
  reshape_param {
    shape {
      dim: -1
      dim: 512
    }
  }
}
layer {
  name: "reshape2"
  type: "Reshape"
  bottom: "pool5_A"
  top: "reshape2"
  reshape_param {
    shape {
      dim: -1
      dim: 512
    }
  }
}
layer {
  name: "reshape3"
  type: "Reshape"
  bottom: "pool5_A_A"
  top: "reshape3"
  reshape_param {
    shape {
      dim: -1
      dim: 512
    }
  }
}
layer {
  name: "pow1"
  type: "Power"
  bottom: "reshape1"
  top: "pow1"
  power_param {
    power: 1
    scale: 0.1
    shift: 0
  }
}
layer {
  name: "pow2"
  type: "Power"
  bottom: "reshape2"
  top: "pow2"
  power_param {
    power: 1
    scale: 0.1
    shift: 0
  }
}
layer {
  name: "pow3"
  type: "Power"
  bottom: "reshape3"
  top: "pow3"
  power_param {
    power: 1
    scale: 0.1
    shift: 0
  }
}
layer {
  name: "scale1+2+3"
  type: "Concat"
  bottom: "pow2"
  bottom: "pow1"
  bottom: "pow3"
  top: "scale1+2+3"
  concat_param {
    axis: 1
  }
}
layer {
  name: "scale1+2"
  type: "Concat"
  bottom: "pow2"
  bottom: "pow1"
  top: "scale1+2"
  concat_param {
    axis: 1
  }
}
layer {
  name: "fc1"
  type: "InnerProduct"
  bottom: "scale1+2+3"
  top: "fc1"
  param {
    lr_mult: 0
    decay_mult: 0
  }
  param {
    lr_mult: 0
    decay_mult: 0
  }
  inner_product_param {
    num_output: 200
    weight_filler {
      type: "gaussian"
      std: 0.01
    }
    bias_filler {
      type: "constant"
      value: 0
    }
  }
}
layer {
  name: "accuracy1+2+3"
  type: "Accuracy"
  bottom: "fc1"
  bottom: "label"
  top: "accuracy1+2+3"
}
layer {
  name: "fc2"
  type: "InnerProduct"
  bottom: "scale1+2"
  top: "fc2"
  param {
    lr_mult: 0
    decay_mult: 0
  }
  param {
    lr_mult: 0
    decay_mult: 0
  }
  inner_product_param {
    num_output: 200
    weight_filler {
      type: "gaussian"
      std: 0.01
    }
    bias_filler {
      type: "cons
I0418 08:08:55.358665  7952 layer_factory.cpp:58] Creating layer data
I0418 08:08:55.374289  7952 db_lmdb.cpp:40] Opened lmdb \\6CR6228979\D$\data\bird\448_test_lmdb
I0418 08:08:55.389951  7952 net.cpp:84] Creating Layer data
I0418 08:08:55.389951  7952 net.cpp:380] data -> data
I0418 08:08:55.389951  7952 net.cpp:380] data -> label
I0418 08:08:55.936811  7952 data_layer.cpp:45] output data size: 1,3,448,448
I0418 08:08:55.952437  7952 base_data_layer.cpp:72] Initializing prefetch
I0418 08:08:55.952437  7952 common.cpp:36] System entropy source not available, using fallback algorithm to generate seed instead.
I0418 08:08:55.952437  7952 base_data_layer.cpp:75] Prefetch initialized.
I0418 08:08:55.952437  7952 net.cpp:122] Setting up data
I0418 08:08:55.952437  7952 net.cpp:129] Top shape: 1 3 448 448 (602112)
I0418 08:08:55.952437  7952 net.cpp:129] Top shape: 1 (1)
I0418 08:08:55.952437  7952 net.cpp:137] Memory required for data: 2408452
I0418 08:08:55.952437  7952 layer_factory.cpp:58] Creating layer data_data_0_split
I0418 08:08:55.952437  6080 common.cpp:36] System entropy source not available, using fallback algorithm to generate seed instead.
I0418 08:08:55.968065  7952 net.cpp:84] Creating Layer data_data_0_split
I0418 08:08:55.968065  7952 net.cpp:406] data_data_0_split <- data
I0418 08:08:55.968065  7952 net.cpp:380] data_data_0_split -> data_data_0_split_0
I0418 08:08:55.968065  7952 net.cpp:380] data_data_0_split -> data_data_0_split_1
I0418 08:08:55.968065  7952 net.cpp:122] Setting up data_data_0_split
I0418 08:08:55.968065  7952 net.cpp:129] Top shape: 1 3 448 448 (602112)
I0418 08:08:55.968065  7952 net.cpp:129] Top shape: 1 3 448 448 (602112)
I0418 08:08:55.968065  7952 net.cpp:137] Memory required for data: 7225348
I0418 08:08:55.968065  7952 layer_factory.cpp:58] Creating layer label_data_1_split
I0418 08:08:55.968065  7952 net.cpp:84] Creating Layer label_data_1_split
I0418 08:08:55.968065  7952 net.cpp:406] label_data_1_split <- label
I0418 08:08:55.968065  7952 net.cpp:380] label_data_1_split -> label_data_1_split_0
I0418 08:08:55.968065  7952 net.cpp:380] label_data_1_split -> label_data_1_split_1
I0418 08:08:55.968065  7952 net.cpp:122] Setting up label_data_1_split
I0418 08:08:55.968065  7952 net.cpp:129] Top shape: 1 (1)
I0418 08:08:55.968065  7952 net.cpp:129] Top shape: 1 (1)
I0418 08:08:55.968065  7952 net.cpp:137] Memory required for data: 7225356
I0418 08:08:55.968065  7952 layer_factory.cpp:58] Creating layer conv1_1
I0418 08:08:55.968065  7952 net.cpp:84] Creating Layer conv1_1
I0418 08:08:55.968065  7952 net.cpp:406] conv1_1 <- data_data_0_split_0
I0418 08:08:55.968065  7952 net.cpp:380] conv1_1 -> conv1_1
I0418 08:08:55.983690  6080 data_layer.cpp:128] Prefetch batch: 31 ms.
I0418 08:08:55.983690  6080 data_layer.cpp:129]      Read time: 0 ms.
I0418 08:08:55.983690  6080 data_layer.cpp:130] Transform time: 31.252 ms.
I0418 08:08:56.139957  6080 data_layer.cpp:128] Prefetch batch: 156 ms.
I0418 08:08:56.139957  6080 data_layer.cpp:129]      Read time: 93.787 ms.
I0418 08:08:56.139957  6080 data_layer.cpp:130] Transform time: 62.481 ms.
I0418 08:08:56.296200  6080 data_layer.cpp:128] Prefetch batch: 156 ms.
I0418 08:08:56.296200  6080 data_layer.cpp:129]      Read time: 93.786 ms.
I0418 08:08:56.296200  6080 data_layer.cpp:130] Transform time: 62.457 ms.
I0418 08:08:56.421205  6080 data_layer.cpp:128] Prefetch batch: 125 ms.
I0418 08:08:56.421205  6080 data_layer.cpp:129]      Read time: 93.754 ms.
I0418 08:08:56.421205  6080 data_layer.cpp:130] Transform time: 31.251 ms.
I0418 08:08:58.484815  7952 net.cpp:122] Setting up conv1_1
I0418 08:08:58.484815  7952 net.cpp:129] Top shape: 1 64 448 448 (12845056)
I0418 08:08:58.484815  7952 net.cpp:137] Memory required for data: 58605580
I0418 08:08:58.484815  7952 layer_factory.cpp:58] Creating layer relu1_1
I0418 08:08:58.484815  7952 net.cpp:84] Creating Layer relu1_1
I0418 08:08:58.484815  7952 net.cpp:406] relu1_1 <- conv1_1
I0418 08:08:58.484815  7952 net.cpp:367] relu1_1 -> conv1_1 (in-place)
I0418 08:08:58.484815  7952 net.cpp:122] Setting up relu1_1
I0418 08:08:58.484815  7952 net.cpp:129] Top shape: 1 64 448 448 (12845056)
I0418 08:08:58.484815  7952 net.cpp:137] Memory required for data: 109985804
I0418 08:08:58.484815  7952 layer_factory.cpp:58] Creating layer conv1_2
I0418 08:08:58.484815  7952 net.cpp:84] Creating Layer conv1_2
I0418 08:08:58.484815  7952 net.cpp:406] conv1_2 <- conv1_1
I0418 08:08:58.484815  7952 net.cpp:380] conv1_2 -> conv1_2
I0418 08:08:58.500448  7952 net.cpp:122] Setting up conv1_2
I0418 08:08:58.500448  7952 net.cpp:129] Top shape: 1 64 448 448 (12845056)
I0418 08:08:58.500448  7952 net.cpp:137] Memory required for data: 161366028
I0418 08:08:58.500448  7952 layer_factory.cpp:58] Creating layer relu1_2
I0418 08:08:58.500448  7952 net.cpp:84] Creating Layer relu1_2
I0418 08:08:58.500448  7952 net.cpp:406] relu1_2 <- conv1_2
I0418 08:08:58.500448  7952 net.cpp:367] relu1_2 -> conv1_2 (in-place)
I0418 08:08:58.500448  7952 net.cpp:122] Setting up relu1_2
I0418 08:08:58.500448  7952 net.cpp:129] Top shape: 1 64 448 448 (12845056)
I0418 08:08:58.500448  7952 net.cpp:137] Memory required for data: 212746252
I0418 08:08:58.500448  7952 layer_factory.cpp:58] Creating layer pool1
I0418 08:08:58.500448  7952 net.cpp:84] Creating Layer pool1
I0418 08:08:58.500448  7952 net.cpp:406] pool1 <- conv1_2
I0418 08:08:58.500448  7952 net.cpp:380] pool1 -> pool1
I0418 08:08:58.500448  7952 net.cpp:122] Setting up pool1
I0418 08:08:58.500448  7952 net.cpp:129] Top shape: 1 64 224 224 (3211264)
I0418 08:08:58.500448  7952 net.cpp:137] Memory required for data: 225591308
I0418 08:08:58.500448  7952 layer_factory.cpp:58] Creating layer conv2_1
I0418 08:08:58.500448  7952 net.cpp:84] Creating Layer conv2_1
I0418 08:08:58.500448  7952 net.cpp:406] conv2_1 <- pool1
I0418 08:08:58.500448  7952 net.cpp:380] conv2_1 -> conv2_1
I0418 08:08:58.531711  7952 cudnn_conv_layer.cpp:194] Reallocating workspace storage: 6912
I0418 08:08:58.531711  7952 net.cpp:122] Setting up conv2_1
I0418 08:08:58.531711  7952 net.cpp:129] Top shape: 1 128 224 224 (6422528)
I0418 08:08:58.531711  7952 net.cpp:137] Memory required for data: 251281420
I0418 08:08:58.531711  7952 layer_factory.cpp:58] Creating layer relu2_1
I0418 08:08:58.531711  7952 net.cpp:84] Creating Layer relu2_1
I0418 08:08:58.531711  7952 net.cpp:406] relu2_1 <- conv2_1
I0418 08:08:58.531711  7952 net.cpp:367] relu2_1 -> conv2_1 (in-place)
I0418 08:08:58.531711  7952 net.cpp:122] Setting up relu2_1
I0418 08:08:58.531711  7952 net.cpp:129] Top shape: 1 128 224 224 (6422528)
I0418 08:08:58.531711  7952 net.cpp:137] Memory required for data: 276971532
I0418 08:08:58.531711  7952 layer_factory.cpp:58] Creating layer conv2_2
I0418 08:08:58.531711  7952 net.cpp:84] Creating Layer conv2_2
I0418 08:08:58.531711  7952 net.cpp:406] conv2_2 <- conv2_1
I0418 08:08:58.531711  7952 net.cpp:380] conv2_2 -> conv2_2
I0418 08:08:58.562963  7952 cudnn_conv_layer.cpp:194] Reallocating workspace storage: 13824
I0418 08:08:58.562963  7952 net.cpp:122] Setting up conv2_2
I0418 08:08:58.562963  7952 net.cpp:129] Top shape: 1 128 224 224 (6422528)
I0418 08:08:58.562963  7952 net.cpp:137] Memory required for data: 302661644
I0418 08:08:58.562963  7952 layer_factory.cpp:58] Creating layer relu2_2
I0418 08:08:58.562963  7952 net.cpp:84] Creating Layer relu2_2
I0418 08:08:58.562963  7952 net.cpp:406] relu2_2 <- conv2_2
I0418 08:08:58.562963  7952 net.cpp:367] relu2_2 -> conv2_2 (in-place)
I0418 08:08:58.562963  7952 net.cpp:122] Setting up relu2_2
I0418 08:08:58.562963  7952 net.cpp:129] Top shape: 1 128 224 224 (6422528)
I0418 08:08:58.562963  7952 net.cpp:137] Memory required for data: 328351756
I0418 08:08:58.562963  7952 layer_factory.cpp:58] Creating layer pool2
I0418 08:08:58.562963  7952 net.cpp:84] Creating Layer pool2
I0418 08:08:58.562963  7952 net.cpp:406] pool2 <- conv2_2
I0418 08:08:58.562963  7952 net.cpp:380] pool2 -> pool2
I0418 08:08:58.562963  7952 net.cpp:122] Setting up pool2
I0418 08:08:58.562963  7952 net.cpp:129] Top shape: 1 128 112 112 (1605632)
I0418 08:08:58.562963  7952 net.cpp:137] Memory required for data: 334774284
I0418 08:08:58.562963  7952 layer_factory.cpp:58] Creating layer conv3_1
I0418 08:08:58.562963  7952 net.cpp:84] Creating Layer conv3_1
I0418 08:08:58.562963  7952 net.cpp:406] conv3_1 <- pool2
I0418 08:08:58.562963  7952 net.cpp:380] conv3_1 -> conv3_1
I0418 08:08:58.641090  7952 cudnn_conv_layer.cpp:194] Reallocating workspace storage: 13824
I0418 08:08:58.641090  7952 net.cpp:122] Setting up conv3_1
I0418 08:08:58.641090  7952 net.cpp:129] Top shape: 1 256 112 112 (3211264)
I0418 08:08:58.641090  7952 net.cpp:137] Memory required for data: 347619340
I0418 08:08:58.641090  7952 layer_factory.cpp:58] Creating layer relu3_1
I0418 08:08:58.641090  7952 net.cpp:84] Creating Layer relu3_1
I0418 08:08:58.641090  7952 net.cpp:406] relu3_1 <- conv3_1
I0418 08:08:58.641090  7952 net.cpp:367] relu3_1 -> conv3_1 (in-place)
I0418 08:08:58.641090  7952 net.cpp:122] Setting up relu3_1
I0418 08:08:58.641090  7952 net.cpp:129] Top shape: 1 256 112 112 (3211264)
I0418 08:08:58.641090  7952 net.cpp:137] Memory required for data: 360464396
I0418 08:08:58.641090  7952 layer_factory.cpp:58] Creating layer conv3_2
I0418 08:08:58.641090  7952 net.cpp:84] Creating Layer conv3_2
I0418 08:08:58.641090  7952 net.cpp:406] conv3_2 <- conv3_1
I0418 08:08:58.641090  7952 net.cpp:380] conv3_2 -> conv3_2
I0418 08:08:58.781720  7952 cudnn_conv_layer.cpp:194] Reallocating workspace storage: 27648
I0418 08:08:58.781720  7952 net.cpp:122] Setting up conv3_2
I0418 08:08:58.781720  7952 net.cpp:129] Top shape: 1 256 112 112 (3211264)
I0418 08:08:58.781720  7952 net.cpp:137] Memory required for data: 373309452
I0418 08:08:58.781720  7952 layer_factory.cpp:58] Creating layer relu3_2
I0418 08:08:58.781720  7952 net.cpp:84] Creating Layer relu3_2
I0418 08:08:58.781720  7952 net.cpp:406] relu3_2 <- conv3_2
I0418 08:08:58.781720  7952 net.cpp:367] relu3_2 -> conv3_2 (in-place)
I0418 08:08:58.781720  7952 net.cpp:122] Setting up relu3_2
I0418 08:08:58.781720  7952 net.cpp:129] Top shape: 1 256 112 112 (3211264)
I0418 08:08:58.781720  7952 net.cpp:137] Memory required for data: 386154508
I0418 08:08:58.781720  7952 layer_factory.cpp:58] Creating layer conv3_3
I0418 08:08:58.781720  7952 net.cpp:84] Creating Layer conv3_3
I0418 08:08:58.781720  7952 net.cpp:406] conv3_3 <- conv3_2
I0418 08:08:58.781720  7952 net.cpp:380] conv3_3 -> conv3_3
I0418 08:08:58.922353  7952 cudnn_conv_layer.cpp:194] Reallocating workspace storage: 27648
I0418 08:08:58.922353  7952 net.cpp:122] Setting up conv3_3
I0418 08:08:58.922353  7952 net.cpp:129] Top shape: 1 256 112 112 (3211264)
I0418 08:08:58.937974  7952 net.cpp:137] Memory required for data: 398999564
I0418 08:08:58.937974  7952 layer_factory.cpp:58] Creating layer relu3_3
I0418 08:08:58.937974  7952 net.cpp:84] Creating Layer relu3_3
I0418 08:08:58.937974  7952 net.cpp:406] relu3_3 <- conv3_3
I0418 08:08:58.937974  7952 net.cpp:367] relu3_3 -> conv3_3 (in-place)
I0418 08:08:58.937974  7952 net.cpp:122] Setting up relu3_3
I0418 08:08:58.937974  7952 net.cpp:129] Top shape: 1 256 112 112 (3211264)
I0418 08:08:58.937974  7952 net.cpp:137] Memory required for data: 411844620
I0418 08:08:58.937974  7952 layer_factory.cpp:58] Creating layer conv3_4
I0418 08:08:58.937974  7952 net.cpp:84] Creating Layer conv3_4
I0418 08:08:58.937974  7952 net.cpp:406] conv3_4 <- conv3_3
I0418 08:08:58.937974  7952 net.cpp:380] conv3_4 -> conv3_4
I0418 08:08:59.078608  7952 cudnn_conv_layer.cpp:194] Reallocating workspace storage: 27648
I0418 08:08:59.078608  7952 net.cpp:122] Setting up conv3_4
I0418 08:08:59.078608  7952 net.cpp:129] Top shape: 1 256 112 112 (3211264)
I0418 08:08:59.078608  7952 net.cpp:137] Memory required for data: 424689676
I0418 08:08:59.078608  7952 layer_factory.cpp:58] Creating layer relu3_4
I0418 08:08:59.078608  7952 net.cpp:84] Creating Layer relu3_4
I0418 08:08:59.078608  7952 net.cpp:406] relu3_4 <- conv3_4
I0418 08:08:59.078608  7952 net.cpp:367] relu3_4 -> conv3_4 (in-place)
I0418 08:08:59.078608  7952 net.cpp:122] Setting up relu3_4
I0418 08:08:59.078608  7952 net.cpp:129] Top shape: 1 256 112 112 (3211264)
I0418 08:08:59.078608  7952 net.cpp:137] Memory required for data: 437534732
I0418 08:08:59.078608  7952 layer_factory.cpp:58] Creating layer pool3
I0418 08:08:59.078608  7952 net.cpp:84] Creating Layer pool3
I0418 08:08:59.078608  7952 net.cpp:406] pool3 <- conv3_4
I0418 08:08:59.078608  7952 net.cpp:380] pool3 -> pool3
I0418 08:08:59.078608  7952 net.cpp:122] Setting up pool3
I0418 08:08:59.078608  7952 net.cpp:129] Top shape: 1 256 56 56 (802816)
I0418 08:08:59.078608  7952 net.cpp:137] Memory required for data: 440745996
I0418 08:08:59.078608  7952 layer_factory.cpp:58] Creating layer conv4_1
I0418 08:08:59.078608  7952 net.cpp:84] Creating Layer conv4_1
I0418 08:08:59.078608  7952 net.cpp:406] conv4_1 <- pool3
I0418 08:08:59.078608  7952 net.cpp:380] conv4_1 -> conv4_1
I0418 08:08:59.359869  7952 cudnn_conv_layer.cpp:194] Reallocating workspace storage: 27648
I0418 08:08:59.359869  7952 net.cpp:122] Setting up conv4_1
I0418 08:08:59.359869  7952 net.cpp:129] Top shape: 1 512 56 56 (1605632)
I0418 08:08:59.359869  7952 net.cpp:137] Memory required for data: 447168524
I0418 08:08:59.359869  7952 layer_factory.cpp:58] Creating layer relu4_1
I0418 08:08:59.359869  7952 net.cpp:84] Creating Layer relu4_1
I0418 08:08:59.359869  7952 net.cpp:406] relu4_1 <- conv4_1
I0418 08:08:59.359869  7952 net.cpp:367] relu4_1 -> conv4_1 (in-place)
I0418 08:08:59.359869  7952 net.cpp:122] Setting up relu4_1
I0418 08:08:59.359869  7952 net.cpp:129] Top shape: 1 512 56 56 (1605632)
I0418 08:08:59.359869  7952 net.cpp:137] Memory required for data: 453591052
I0418 08:08:59.359869  7952 layer_factory.cpp:58] Creating layer conv4_2
I0418 08:08:59.359869  7952 net.cpp:84] Creating Layer conv4_2
I0418 08:08:59.359869  7952 net.cpp:406] conv4_2 <- conv4_1
I0418 08:08:59.359869  7952 net.cpp:380] conv4_2 -> conv4_2
I0418 08:08:59.938014  7952 cudnn_conv_layer.cpp:194] Reallocating workspace storage: 55296
I0418 08:08:59.938014  7952 net.cpp:122] Setting up conv4_2
I0418 08:08:59.938014  7952 net.cpp:129] Top shape: 1 512 56 56 (1605632)
I0418 08:08:59.938014  7952 net.cpp:137] Memory required for data: 460013580
I0418 08:08:59.938014  7952 layer_factory.cpp:58] Creating layer relu4_2
I0418 08:08:59.938014  7952 net.cpp:84] Creating Layer relu4_2
I0418 08:08:59.938014  7952 net.cpp:406] relu4_2 <- conv4_2
I0418 08:08:59.938014  7952 net.cpp:367] relu4_2 -> conv4_2 (in-place)
I0418 08:08:59.938014  7952 net.cpp:122] Setting up relu4_2
I0418 08:08:59.938014  7952 net.cpp:129] Top shape: 1 512 56 56 (1605632)
I0418 08:08:59.938014  7952 net.cpp:137] Memory required for data: 466436108
I0418 08:08:59.938014  7952 layer_factory.cpp:58] Creating layer conv4_3
I0418 08:08:59.938014  7952 net.cpp:84] Creating Layer conv4_3
I0418 08:08:59.938014  7952 net.cpp:406] conv4_3 <- conv4_2
I0418 08:08:59.938014  7952 net.cpp:380] conv4_3 -> conv4_3
I0418 08:09:00.500538  7952 cudnn_conv_layer.cpp:194] Reallocating workspace storage: 55296
I0418 08:09:00.500538  7952 net.cpp:122] Setting up conv4_3
I0418 08:09:00.500538  7952 net.cpp:129] Top shape: 1 512 56 56 (1605632)
I0418 08:09:00.500538  7952 net.cpp:137] Memory required for data: 472858636
I0418 08:09:00.500538  7952 layer_factory.cpp:58] Creating layer relu4_3
I0418 08:09:00.500538  7952 net.cpp:84] Creating Layer relu4_3
I0418 08:09:00.500538  7952 net.cpp:406] relu4_3 <- conv4_3
I0418 08:09:00.500538  7952 net.cpp:367] relu4_3 -> conv4_3 (in-place)
I0418 08:09:00.500538  7952 net.cpp:122] Setting up relu4_3
I0418 08:09:00.500538  7952 net.cpp:129] Top shape: 1 512 56 56 (1605632)
I0418 08:09:00.500538  7952 net.cpp:137] Memory required for data: 479281164
I0418 08:09:00.500538  7952 layer_factory.cpp:58] Creating layer conv4_4
I0418 08:09:00.500538  7952 net.cpp:84] Creating Layer conv4_4
I0418 08:09:00.500538  7952 net.cpp:406] conv4_4 <- conv4_3
I0418 08:09:00.500538  7952 net.cpp:380] conv4_4 -> conv4_4
I0418 08:09:01.078685  7952 cudnn_conv_layer.cpp:194] Reallocating workspace storage: 55296
I0418 08:09:01.078685  7952 net.cpp:122] Setting up conv4_4
I0418 08:09:01.078685  7952 net.cpp:129] Top shape: 1 512 56 56 (1605632)
I0418 08:09:01.078685  7952 net.cpp:137] Memory required for data: 485703692
I0418 08:09:01.078685  7952 layer_factory.cpp:58] Creating layer relu4_4
I0418 08:09:01.078685  7952 net.cpp:84] Creating Layer relu4_4
I0418 08:09:01.078685  7952 net.cpp:406] relu4_4 <- conv4_4
I0418 08:09:01.078685  7952 net.cpp:367] relu4_4 -> conv4_4 (in-place)
I0418 08:09:01.078685  7952 net.cpp:122] Setting up relu4_4
I0418 08:09:01.078685  7952 net.cpp:129] Top shape: 1 512 56 56 (1605632)
I0418 08:09:01.078685  7952 net.cpp:137] Memory required for data: 492126220
I0418 08:09:01.078685  7952 layer_factory.cpp:58] Creating layer pool4
I0418 08:09:01.078685  7952 net.cpp:84] Creating Layer pool4
I0418 08:09:01.078685  7952 net.cpp:406] pool4 <- conv4_4
I0418 08:09:01.078685  7952 net.cpp:380] pool4 -> pool4
I0418 08:09:01.078685  7952 net.cpp:122] Setting up pool4
I0418 08:09:01.078685  7952 net.cpp:129] Top shape: 1 512 28 28 (401408)
I0418 08:09:01.078685  7952 net.cpp:137] Memory required for data: 493731852
I0418 08:09:01.078685  7952 layer_factory.cpp:58] Creating layer conv5_1
I0418 08:09:01.078685  7952 net.cpp:84] Creating Layer conv5_1
I0418 08:09:01.078685  7952 net.cpp:406] conv5_1 <- pool4
I0418 08:09:01.078685  7952 net.cpp:380] conv5_1 -> conv5_1
I0418 08:09:01.641206  7952 cudnn_conv_layer.cpp:194] Reallocating workspace storage: 55296
I0418 08:09:01.641206  7952 net.cpp:122] Setting up conv5_1
I0418 08:09:01.641206  7952 net.cpp:129] Top shape: 1 512 28 28 (401408)
I0418 08:09:01.641206  7952 net.cpp:137] Memory required for data: 495337484
I0418 08:09:01.641206  7952 layer_factory.cpp:58] Creating layer relu5_1
I0418 08:09:01.641206  7952 net.cpp:84] Creating Layer relu5_1
I0418 08:09:01.641206  7952 net.cpp:406] relu5_1 <- conv5_1
I0418 08:09:01.641206  7952 net.cpp:367] relu5_1 -> conv5_1 (in-place)
I0418 08:09:01.641206  7952 net.cpp:122] Setting up relu5_1
I0418 08:09:01.641206  7952 net.cpp:129] Top shape: 1 512 28 28 (401408)
I0418 08:09:01.641206  7952 net.cpp:137] Memory required for data: 496943116
I0418 08:09:01.641206  7952 layer_factory.cpp:58] Creating layer conv5_2
I0418 08:09:01.641206  7952 net.cpp:84] Creating Layer conv5_2
I0418 08:09:01.641206  7952 net.cpp:406] conv5_2 <- conv5_1
I0418 08:09:01.641206  7952 net.cpp:380] conv5_2 -> conv5_2
I0418 08:09:02.219363  7952 cudnn_conv_layer.cpp:194] Reallocating workspace storage: 55296
I0418 08:09:02.219363  7952 net.cpp:122] Setting up conv5_2
I0418 08:09:02.219363  7952 net.cpp:129] Top shape: 1 512 28 28 (401408)
I0418 08:09:02.219363  7952 net.cpp:137] Memory required for data: 498548748
I0418 08:09:02.219363  7952 layer_factory.cpp:58] Creating layer relu5_2
I0418 08:09:02.219363  7952 net.cpp:84] Creating Layer relu5_2
I0418 08:09:02.219363  7952 net.cpp:406] relu5_2 <- conv5_2
I0418 08:09:02.219363  7952 net.cpp:367] relu5_2 -> conv5_2 (in-place)
I0418 08:09:02.219363  7952 net.cpp:122] Setting up relu5_2
I0418 08:09:02.219363  7952 net.cpp:129] Top shape: 1 512 28 28 (401408)
I0418 08:09:02.219363  7952 net.cpp:137] Memory required for data: 500154380
I0418 08:09:02.219363  7952 layer_factory.cpp:58] Creating layer conv5_3
I0418 08:09:02.219363  7952 net.cpp:84] Creating Layer conv5_3
I0418 08:09:02.219363  7952 net.cpp:406] conv5_3 <- conv5_2
I0418 08:09:02.219363  7952 net.cpp:380] conv5_3 -> conv5_3
I0418 08:09:02.797502  7952 cudnn_conv_layer.cpp:194] Reallocating workspace storage: 55296
I0418 08:09:02.797502  7952 net.cpp:122] Setting up conv5_3
I0418 08:09:02.797502  7952 net.cpp:129] Top shape: 1 512 28 28 (401408)
I0418 08:09:02.797502  7952 net.cpp:137] Memory required for data: 501760012
I0418 08:09:02.797502  7952 layer_factory.cpp:58] Creating layer relu5_3
I0418 08:09:02.797502  7952 net.cpp:84] Creating Layer relu5_3
I0418 08:09:02.797502  7952 net.cpp:406] relu5_3 <- conv5_3
I0418 08:09:02.797502  7952 net.cpp:367] relu5_3 -> conv5_3 (in-place)
I0418 08:09:02.797502  7952 net.cpp:122] Setting up relu5_3
I0418 08:09:02.797502  7952 net.cpp:129] Top shape: 1 512 28 28 (401408)
I0418 08:09:02.797502  7952 net.cpp:137] Memory required for data: 503365644
I0418 08:09:02.797502  7952 layer_factory.cpp:58] Creating layer conv5_4
I0418 08:09:02.797502  7952 net.cpp:84] Creating Layer conv5_4
I0418 08:09:02.797502  7952 net.cpp:406] conv5_4 <- conv5_3
I0418 08:09:02.797502  7952 net.cpp:380] conv5_4 -> conv5_4
I0418 08:09:03.375649  7952 cudnn_conv_layer.cpp:194] Reallocating workspace storage: 55296
I0418 08:09:03.375649  7952 net.cpp:122] Setting up conv5_4
I0418 08:09:03.375649  7952 net.cpp:129] Top shape: 1 512 28 28 (401408)
I0418 08:09:03.375649  7952 net.cpp:137] Memory required for data: 504971276
I0418 08:09:03.375649  7952 layer_factory.cpp:58] Creating layer relu5_4
I0418 08:09:03.375649  7952 net.cpp:84] Creating Layer relu5_4
I0418 08:09:03.375649  7952 net.cpp:406] relu5_4 <- conv5_4
I0418 08:09:03.375649  7952 net.cpp:367] relu5_4 -> conv5_4 (in-place)
I0418 08:09:03.375649  7952 net.cpp:122] Setting up relu5_4
I0418 08:09:03.375649  7952 net.cpp:129] Top shape: 1 512 28 28 (401408)
I0418 08:09:03.375649  7952 net.cpp:137] Memory required for data: 506576908
I0418 08:09:03.375649  7952 layer_factory.cpp:58] Creating layer conv5_4_relu5_4_0_split
I0418 08:09:03.375649  7952 net.cpp:84] Creating Layer conv5_4_relu5_4_0_split
I0418 08:09:03.375649  7952 net.cpp:406] conv5_4_relu5_4_0_split <- conv5_4
I0418 08:09:03.375649  7952 net.cpp:380] conv5_4_relu5_4_0_split -> conv5_4_relu5_4_0_split_0
I0418 08:09:03.375649  7952 net.cpp:380] conv5_4_relu5_4_0_split -> conv5_4_relu5_4_0_split_1
I0418 08:09:03.375649  7952 net.cpp:122] Setting up conv5_4_relu5_4_0_split
I0418 08:09:03.375649  7952 net.cpp:129] Top shape: 1 512 28 28 (401408)
I0418 08:09:03.375649  7952 net.cpp:129] Top shape: 1 512 28 28 (401408)
I0418 08:09:03.375649  7952 net.cpp:137] Memory required for data: 509788172
I0418 08:09:03.375649  7952 layer_factory.cpp:58] Creating layer pool5
I0418 08:09:03.375649  7952 net.cpp:84] Creating Layer pool5
I0418 08:09:03.375649  7952 net.cpp:406] pool5 <- conv5_4_relu5_4_0_split_0
I0418 08:09:03.375649  7952 net.cpp:380] pool5 -> pool5
I0418 08:09:03.375649  7952 net.cpp:122] Setting up pool5
I0418 08:09:03.375649  7952 net.cpp:129] Top shape: 1 512 1 1 (512)
I0418 08:09:03.375649  7952 net.cpp:137] Memory required for data: 509790220
I0418 08:09:03.375649  7952 layer_factory.cpp:58] Creating layer anp_pool
I0418 08:09:03.375649  7952 net.cpp:84] Creating Layer anp_pool
I0418 08:09:03.375649  7952 net.cpp:406] anp_pool <- conv5_4_relu5_4_0_split_1
I0418 08:09:03.375649  7952 net.cpp:380] anp_pool -> anp_pool
I0418 08:09:03.375649  7952 net.cpp:122] Setting up anp_pool
I0418 08:09:03.375649  7952 net.cpp:129] Top shape: 1 512 14 14 (100352)
I0418 08:09:03.375649  7952 net.cpp:137] Memory required for data: 510191628
I0418 08:09:03.375649  7952 layer_factory.cpp:58] Creating layer get_abc1
I0418 08:09:03.375649  7952 net.cpp:84] Creating Layer get_abc1
I0418 08:09:03.375649  7952 net.cpp:406] get_abc1 <- anp_pool
I0418 08:09:03.375649  7952 net.cpp:380] get_abc1 -> get_abc1
I0418 08:09:28.251626  7952 net.cpp:122] Setting up get_abc1
I0418 08:09:28.251626  7952 net.cpp:129] Top shape: 1 1024 (1024)
I0418 08:09:28.251626  7952 net.cpp:137] Memory required for data: 510195724
I0418 08:09:28.251626  7952 layer_factory.cpp:58] Creating layer tanh
I0418 08:09:28.251626  7952 net.cpp:84] Creating Layer tanh
I0418 08:09:28.251626  7952 net.cpp:406] tanh <- get_abc1
I0418 08:09:28.251626  7952 net.cpp:380] tanh -> tanh
I0418 08:09:28.251626  7952 net.cpp:122] Setting up tanh
I0418 08:09:28.251626  7952 net.cpp:129] Top shape: 1 1024 (1024)
I0418 08:09:28.251626  7952 net.cpp:137] Memory required for data: 510199820
I0418 08:09:28.251626  7952 layer_factory.cpp:58] Creating layer get_abc2
I0418 08:09:28.251626  7952 net.cpp:84] Creating Layer get_abc2
I0418 08:09:28.251626  7952 net.cpp:406] get_abc2 <- tanh
I0418 08:09:28.251626  7952 net.cpp:380] get_abc2 -> get_abc2
I0418 08:09:28.267251  7952 net.cpp:122] Setting up get_abc2
I0418 08:09:28.267251  7952 net.cpp:129] Top shape: 1 3 (3)
I0418 08:09:28.267251  7952 net.cpp:137] Memory required for data: 510199832
I0418 08:09:28.267251  7952 layer_factory.cpp:58] Creating layer sigmoid
I0418 08:09:28.267251  7952 net.cpp:84] Creating Layer sigmoid
I0418 08:09:28.267251  7952 net.cpp:406] sigmoid <- get_abc2
I0418 08:09:28.267251  7952 net.cpp:380] sigmoid -> sig_abc
I0418 08:09:28.267251  7952 net.cpp:122] Setting up sigmoid
I0418 08:09:28.267251  7952 net.cpp:129] Top shape: 1 3 (3)
I0418 08:09:28.267251  7952 net.cpp:137] Memory required for data: 510199844
I0418 08:09:28.267251  7952 layer_factory.cpp:58] Creating layer get448
I0418 08:09:28.267251  7952 net.cpp:84] Creating Layer get448
I0418 08:09:28.267251  7952 net.cpp:406] get448 <- sig_abc
I0418 08:09:28.267251  7952 net.cpp:380] get448 -> get448
I0418 08:09:28.267251  7952 net.cpp:122] Setting up get448
I0418 08:09:28.267251  7952 net.cpp:129] Top shape: 1 3 (3)
I0418 08:09:28.267251  7952 net.cpp:137] Memory required for data: 510199856
I0418 08:09:28.267251  7952 layer_factory.cpp:58] Creating layer atten_crop
I0418 08:09:28.267251  7952 net.cpp:84] Creating Layer atten_crop
I0418 08:09:28.267251  7952 net.cpp:406] atten_crop <- data_data_0_split_1
I0418 08:09:28.267251  7952 net.cpp:406] atten_crop <- get448
I0418 08:09:28.267251  7952 net.cpp:380] atten_crop -> scale2_data
I0418 08:09:28.267251  7952 net.cpp:122] Setting up atten_crop
I0418 08:09:28.267251  7952 net.cpp:129] Top shape: 1 3 224 224 (150528)
I0418 08:09:28.267251  7952 net.cpp:137] Memory required for data: 510801968
I0418 08:09:28.267251  7952 layer_factory.cpp:58] Creating layer scale2_data_atten_crop_0_split
I0418 08:09:28.267251  7952 net.cpp:84] Creating Layer scale2_data_atten_crop_0_split
I0418 08:09:28.267251  7952 net.cpp:406] scale2_data_atten_crop_0_split <- scale2_data
I0418 08:09:28.267251  7952 net.cpp:380] scale2_data_atten_crop_0_split -> scale2_data_atten_crop_0_split_0
I0418 08:09:28.267251  7952 net.cpp:380] scale2_data_atten_crop_0_split -> scale2_data_atten_crop_0_split_1
I0418 08:09:28.267251  7952 net.cpp:122] Setting up scale2_data_atten_crop_0_split
I0418 08:09:28.267251  7952 net.cpp:129] Top shape: 1 3 224 224 (150528)
I0418 08:09:28.267251  7952 net.cpp:129] Top shape: 1 3 224 224 (150528)
I0418 08:09:28.267251  7952 net.cpp:137] Memory required for data: 512006192
I0418 08:09:28.267251  7952 layer_factory.cpp:58] Creating layer conv1_1_A
I0418 08:09:28.267251  7952 net.cpp:84] Creating Layer conv1_1_A
I0418 08:09:28.267251  7952 net.cpp:406] conv1_1_A <- scale2_data_atten_crop_0_split_0
I0418 08:09:28.267251  7952 net.cpp:380] conv1_1_A -> conv1_1_A
I0418 08:09:28.267251  7952 net.cpp:122] Setting up conv1_1_A
I0418 08:09:28.267251  7952 net.cpp:129] Top shape: 1 64 224 224 (3211264)
I0418 08:09:28.267251  7952 net.cpp:137] Memory required for data: 524851248
I0418 08:09:28.267251  7952 layer_factory.cpp:58] Creating layer relu1_1_A
I0418 08:09:28.267251  7952 net.cpp:84] Creating Layer relu1_1_A
I0418 08:09:28.267251  7952 net.cpp:406] relu1_1_A <- conv1_1_A
I0418 08:09:28.267251  7952 net.cpp:367] relu1_1_A -> conv1_1_A (in-place)
I0418 08:09:28.267251  7952 net.cpp:122] Setting up relu1_1_A
I0418 08:09:28.267251  7952 net.cpp:129] Top shape: 1 64 224 224 (3211264)
I0418 08:09:28.267251  7952 net.cpp:137] Memory required for data: 537696304
I0418 08:09:28.267251  7952 layer_factory.cpp:58] Creating layer conv1_2_A
I0418 08:09:28.267251  7952 net.cpp:84] Creating Layer conv1_2_A
I0418 08:09:28.267251  7952 net.cpp:406] conv1_2_A <- conv1_1_A
I0418 08:09:28.267251  7952 net.cpp:380] conv1_2_A -> conv1_2_A
I0418 08:09:28.282876  7952 cudnn_conv_layer.cpp:194] Reallocating workspace storage: 6912
I0418 08:09:28.282876  7952 net.cpp:122] Setting up conv1_2_A
I0418 08:09:28.282876  7952 net.cpp:129] Top shape: 1 64 224 224 (3211264)
I0418 08:09:28.282876  7952 net.cpp:137] Memory required for data: 550541360
I0418 08:09:28.282876  7952 layer_factory.cpp:58] Creating layer relu1_2_A
I0418 08:09:28.282876  7952 net.cpp:84] Creating Layer relu1_2_A
I0418 08:09:28.282876  7952 net.cpp:406] relu1_2_A <- conv1_2_A
I0418 08:09:28.282876  7952 net.cpp:367] relu1_2_A -> conv1_2_A (in-place)
I0418 08:09:28.282876  7952 net.cpp:122] Setting up relu1_2_A
I0418 08:09:28.282876  7952 net.cpp:129] Top shape: 1 64 224 224 (3211264)
I0418 08:09:28.282876  7952 net.cpp:137] Memory required for data: 563386416
I0418 08:09:28.282876  7952 layer_factory.cpp:58] Creating layer pool1_A
I0418 08:09:28.282876  7952 net.cpp:84] Creating Layer pool1_A
I0418 08:09:28.282876  7952 net.cpp:406] pool1_A <- conv1_2_A
I0418 08:09:28.282876  7952 net.cpp:380] pool1_A -> pool1_A
I0418 08:09:28.282876  7952 net.cpp:122] Setting up pool1_A
I0418 08:09:28.282876  7952 net.cpp:129] Top shape: 1 64 112 112 (802816)
I0418 08:09:28.282876  7952 net.cpp:137] Memory required for data: 566597680
I0418 08:09:28.282876  7952 layer_factory.cpp:58] Creating layer conv2_1_A
I0418 08:09:28.282876  7952 net.cpp:84] Creating Layer conv2_1_A
I0418 08:09:28.282876  7952 net.cpp:406] conv2_1_A <- pool1_A
I0418 08:09:28.282876  7952 net.cpp:380] conv2_1_A -> conv2_1_A
I0418 08:09:28.298502  7952 cudnn_conv_layer.cpp:194] Reallocating workspace storage: 6912
I0418 08:09:28.298502  7952 net.cpp:122] Setting up conv2_1_A
I0418 08:09:28.298502  7952 net.cpp:129] Top shape: 1 128 112 112 (1605632)
I0418 08:09:28.298502  7952 net.cpp:137] Memory required for data: 573020208
I0418 08:09:28.298502  7952 layer_factory.cpp:58] Creating layer relu2_1_A
I0418 08:09:28.298502  7952 net.cpp:84] Creating Layer relu2_1_A
I0418 08:09:28.298502  7952 net.cpp:406] relu2_1_A <- conv2_1_A
I0418 08:09:28.298502  7952 net.cpp:367] relu2_1_A -> conv2_1_A (in-place)
I0418 08:09:28.298502  7952 net.cpp:122] Setting up relu2_1_A
I0418 08:09:28.298502  7952 net.cpp:129] Top shape: 1 128 112 112 (1605632)
I0418 08:09:28.298502  7952 net.cpp:137] Memory required for data: 579442736
I0418 08:09:28.298502  7952 layer_factory.cpp:58] Creating layer conv2_2_A
I0418 08:09:28.298502  7952 net.cpp:84] Creating Layer conv2_2_A
I0418 08:09:28.298502  7952 net.cpp:406] conv2_2_A <- conv2_1_A
I0418 08:09:28.298502  7952 net.cpp:380] conv2_2_A -> conv2_2_A
I0418 08:09:28.329756  7952 cudnn_conv_layer.cpp:194] Reallocating workspace storage: 13824
I0418 08:09:28.329756  7952 net.cpp:122] Setting up conv2_2_A
I0418 08:09:28.329756  7952 net.cpp:129] Top shape: 1 128 112 112 (1605632)
I0418 08:09:28.329756  7952 net.cpp:137] Memory required for data: 585865264
I0418 08:09:28.345379  7952 layer_factory.cpp:58] Creating layer relu2_2_A
I0418 08:09:28.345379  7952 net.cpp:84] Creating Layer relu2_2_A
I0418 08:09:28.345379  7952 net.cpp:406] relu2_2_A <- conv2_2_A
I0418 08:09:28.345379  7952 net.cpp:367] relu2_2_A -> conv2_2_A (in-place)
I0418 08:09:28.345379  7952 net.cpp:122] Setting up relu2_2_A
I0418 08:09:28.345379  7952 net.cpp:129] Top shape: 1 128 112 112 (1605632)
I0418 08:09:28.345379  7952 net.cpp:137] Memory required for data: 592287792
I0418 08:09:28.345379  7952 layer_factory.cpp:58] Creating layer pool2_A
I0418 08:09:28.345379  7952 net.cpp:84] Creating Layer pool2_A
I0418 08:09:28.345379  7952 net.cpp:406] pool2_A <- conv2_2_A
I0418 08:09:28.345379  7952 net.cpp:380] pool2_A -> pool2_A
I0418 08:09:28.345379  7952 net.cpp:122] Setting up pool2_A
I0418 08:09:28.345379  7952 net.cpp:129] Top shape: 1 128 56 56 (401408)
I0418 08:09:28.345379  7952 net.cpp:137] Memory required for data: 593893424
I0418 08:09:28.345379  7952 layer_factory.cpp:58] Creating layer conv3_1_A
I0418 08:09:28.345379  7952 net.cpp:84] Creating Layer conv3_1_A
I0418 08:09:28.345379  7952 net.cpp:406] conv3_1_A <- pool2_A
I0418 08:09:28.345379  7952 net.cpp:380] conv3_1_A -> conv3_1_A
I0418 08:09:28.407882  7952 cudnn_conv_layer.cpp:194] Reallocating workspace storage: 13824
I0418 08:09:28.407882  7952 net.cpp:122] Setting up conv3_1_A
I0418 08:09:28.407882  7952 net.cpp:129] Top shape: 1 256 56 56 (802816)
I0418 08:09:28.407882  7952 net.cpp:137] Memory required for data: 597104688
I0418 08:09:28.407882  7952 layer_factory.cpp:58] Creating layer relu3_1_A
I0418 08:09:28.407882  7952 net.cpp:84] Creating Layer relu3_1_A
I0418 08:09:28.407882  7952 net.cpp:406] relu3_1_A <- conv3_1_A
I0418 08:09:28.407882  7952 net.cpp:367] relu3_1_A -> conv3_1_A (in-place)
I0418 08:09:28.407882  7952 net.cpp:122] Setting up relu3_1_A
I0418 08:09:28.407882  7952 net.cpp:129] Top shape: 1 256 56 56 (802816)
I0418 08:09:28.407882  7952 net.cpp:137] Memory required for data: 600315952
I0418 08:09:28.407882  7952 layer_factory.cpp:58] Creating layer conv3_2_A
I0418 08:09:28.407882  7952 net.cpp:84] Creating Layer conv3_2_A
I0418 08:09:28.407882  7952 net.cpp:406] conv3_2_A <- conv3_1_A
I0418 08:09:28.407882  7952 net.cpp:380] conv3_2_A -> conv3_2_A
I0418 08:09:28.564137  7952 cudnn_conv_layer.cpp:194] Reallocating workspace storage: 27648
I0418 08:09:28.564137  7952 net.cpp:122] Setting up conv3_2_A
I0418 08:09:28.564137  7952 net.cpp:129] Top shape: 1 256 56 56 (802816)
I0418 08:09:28.564137  7952 net.cpp:137] Memory required for data: 603527216
I0418 08:09:28.564137  7952 layer_factory.cpp:58] Creating layer relu3_2_A
I0418 08:09:28.564137  7952 net.cpp:84] Creating Layer relu3_2_A
I0418 08:09:28.564137  7952 net.cpp:406] relu3_2_A <- conv3_2_A
I0418 08:09:28.564137  7952 net.cpp:367] relu3_2_A -> conv3_2_A (in-place)
I0418 08:09:28.564137  7952 net.cpp:122] Setting up relu3_2_A
I0418 08:09:28.564137  7952 net.cpp:129] Top shape: 1 256 56 56 (802816)
I0418 08:09:28.564137  7952 net.cpp:137] Memory required for data: 606738480
I0418 08:09:28.564137  7952 layer_factory.cpp:58] Creating layer conv3_3_A
I0418 08:09:28.564137  7952 net.cpp:84] Creating Layer conv3_3_A
I0418 08:09:28.564137  7952 net.cpp:406] conv3_3_A <- conv3_2_A
I0418 08:09:28.564137  7952 net.cpp:380] conv3_3_A -> conv3_3_A
I0418 08:09:28.704769  7952 cudnn_conv_layer.cpp:194] Reallocating workspace storage: 27648
I0418 08:09:28.704769  7952 net.cpp:122] Setting up conv3_3_A
I0418 08:09:28.704769  7952 net.cpp:129] Top shape: 1 256 56 56 (802816)
I0418 08:09:28.704769  7952 net.cpp:137] Memory required for data: 609949744
I0418 08:09:28.704769  7952 layer_factory.cpp:58] Creating layer relu3_3_A
I0418 08:09:28.704769  7952 net.cpp:84] Creating Layer relu3_3_A
I0418 08:09:28.704769  7952 net.cpp:406] relu3_3_A <- conv3_3_A
I0418 08:09:28.704769  7952 net.cpp:367] relu3_3_A -> conv3_3_A (in-place)
I0418 08:09:28.704769  7952 net.cpp:122] Setting up relu3_3_A
I0418 08:09:28.704769  7952 net.cpp:129] Top shape: 1 256 56 56 (802816)
I0418 08:09:28.704769  7952 net.cpp:137] Memory required for data: 613161008
I0418 08:09:28.704769  7952 layer_factory.cpp:58] Creating layer conv3_4_A
I0418 08:09:28.704769  7952 net.cpp:84] Creating Layer conv3_4_A
I0418 08:09:28.704769  7952 net.cpp:406] conv3_4_A <- conv3_3_A
I0418 08:09:28.704769  7952 net.cpp:380] conv3_4_A -> conv3_4_A
I0418 08:09:28.845401  7952 cudnn_conv_layer.cpp:194] Reallocating workspace storage: 27648
I0418 08:09:28.845401  7952 net.cpp:122] Setting up conv3_4_A
I0418 08:09:28.845401  7952 net.cpp:129] Top shape: 1 256 56 56 (802816)
I0418 08:09:28.845401  7952 net.cpp:137] Memory required for data: 616372272
I0418 08:09:28.845401  7952 layer_factory.cpp:58] Creating layer relu3_4_A
I0418 08:09:28.845401  7952 net.cpp:84] Creating Layer relu3_4_A
I0418 08:09:28.845401  7952 net.cpp:406] relu3_4_A <- conv3_4_A
I0418 08:09:28.845401  7952 net.cpp:367] relu3_4_A -> conv3_4_A (in-place)
I0418 08:09:28.845401  7952 net.cpp:122] Setting up relu3_4_A
I0418 08:09:28.845401  7952 net.cpp:129] Top shape: 1 256 56 56 (802816)
I0418 08:09:28.845401  7952 net.cpp:137] Memory required for data: 619583536
I0418 08:09:28.845401  7952 layer_factory.cpp:58] Creating layer pool3_A
I0418 08:09:28.845401  7952 net.cpp:84] Creating Layer pool3_A
I0418 08:09:28.845401  7952 net.cpp:406] pool3_A <- conv3_4_A
I0418 08:09:28.845401  7952 net.cpp:380] pool3_A -> pool3_A
I0418 08:09:28.845401  7952 net.cpp:122] Setting up pool3_A
I0418 08:09:28.845401  7952 net.cpp:129] Top shape: 1 256 28 28 (200704)
I0418 08:09:28.845401  7952 net.cpp:137] Memory required for data: 620386352
I0418 08:09:28.845401  7952 layer_factory.cpp:58] Creating layer conv4_1_A
I0418 08:09:28.845401  7952 net.cpp:84] Creating Layer conv4_1_A
I0418 08:09:28.845401  7952 net.cpp:406] conv4_1_A <- pool3_A
I0418 08:09:28.845401  7952 net.cpp:380] conv4_1_A -> conv4_1_A
I0418 08:09:29.142285  7952 cudnn_conv_layer.cpp:194] Reallocating workspace storage: 27648
I0418 08:09:29.142285  7952 net.cpp:122] Setting up conv4_1_A
I0418 08:09:29.142285  7952 net.cpp:129] Top shape: 1 512 28 28 (401408)
I0418 08:09:29.142285  7952 net.cpp:137] Memory required for data: 621991984
I0418 08:09:29.142285  7952 layer_factory.cpp:58] Creating layer relu4_1_A
I0418 08:09:29.142285  7952 net.cpp:84] Creating Layer relu4_1_A
I0418 08:09:29.142285  7952 net.cpp:406] relu4_1_A <- conv4_1_A
I0418 08:09:29.142285  7952 net.cpp:367] relu4_1_A -> conv4_1_A (in-place)
I0418 08:09:29.142285  7952 net.cpp:122] Setting up relu4_1_A
I0418 08:09:29.142285  7952 net.cpp:129] Top shape: 1 512 28 28 (401408)
I0418 08:09:29.142285  7952 net.cpp:137] Memory required for data: 623597616
I0418 08:09:29.142285  7952 layer_factory.cpp:58] Creating layer conv4_2_A
I0418 08:09:29.142285  7952 net.cpp:84] Creating Layer conv4_2_A
I0418 08:09:29.142285  7952 net.cpp:406] conv4_2_A <- conv4_1_A
I0418 08:09:29.142285  7952 net.cpp:380] conv4_2_A -> conv4_2_A
I0418 08:09:29.704807  7952 cudnn_conv_layer.cpp:194] Reallocating workspace storage: 55296
I0418 08:09:29.704807  7952 net.cpp:122] Setting up conv4_2_A
I0418 08:09:29.704807  7952 net.cpp:129] Top shape: 1 512 28 28 (401408)
I0418 08:09:29.704807  7952 net.cpp:137] Memory required for data: 625203248
I0418 08:09:29.704807  7952 layer_factory.cpp:58] Creating layer relu4_2_A
I0418 08:09:29.704807  7952 net.cpp:84] Creating Layer relu4_2_A
I0418 08:09:29.704807  7952 net.cpp:406] relu4_2_A <- conv4_2_A
I0418 08:09:29.704807  7952 net.cpp:367] relu4_2_A -> conv4_2_A (in-place)
I0418 08:09:29.704807  7952 net.cpp:122] Setting up relu4_2_A
I0418 08:09:29.704807  7952 net.cpp:129] Top shape: 1 512 28 28 (401408)
I0418 08:09:29.704807  7952 net.cpp:137] Memory required for data: 626808880
I0418 08:09:29.704807  7952 layer_factory.cpp:58] Creating layer conv4_3_A
I0418 08:09:29.704807  7952 net.cpp:84] Creating Layer conv4_3_A
I0418 08:09:29.704807  7952 net.cpp:406] conv4_3_A <- conv4_2_A
I0418 08:09:29.704807  7952 net.cpp:380] conv4_3_A -> conv4_3_A
I0418 08:09:30.282955  7952 cudnn_conv_layer.cpp:194] Reallocating workspace storage: 55296
I0418 08:09:30.282955  7952 net.cpp:122] Setting up conv4_3_A
I0418 08:09:30.282955  7952 net.cpp:129] Top shape: 1 512 28 28 (401408)
I0418 08:09:30.282955  7952 net.cpp:137] Memory required for data: 628414512
I0418 08:09:30.282955  7952 layer_factory.cpp:58] Creating layer relu4_3_A
I0418 08:09:30.282955  7952 net.cpp:84] Creating Layer relu4_3_A
I0418 08:09:30.282955  7952 net.cpp:406] relu4_3_A <- conv4_3_A
I0418 08:09:30.282955  7952 net.cpp:367] relu4_3_A -> conv4_3_A (in-place)
I0418 08:09:30.282955  7952 net.cpp:122] Setting up relu4_3_A
I0418 08:09:30.282955  7952 net.cpp:129] Top shape: 1 512 28 28 (401408)
I0418 08:09:30.282955  7952 net.cpp:137] Memory required for data: 630020144
I0418 08:09:30.282955  7952 layer_factory.cpp:58] Creating layer conv4_4_A
I0418 08:09:30.282955  7952 net.cpp:84] Creating Layer conv4_4_A
I0418 08:09:30.282955  7952 net.cpp:406] conv4_4_A <- conv4_3_A
I0418 08:09:30.282955  7952 net.cpp:380] conv4_4_A -> conv4_4_A
I0418 08:09:30.845479  7952 cudnn_conv_layer.cpp:194] Reallocating workspace storage: 55296
I0418 08:09:30.845479  7952 net.cpp:122] Setting up conv4_4_A
I0418 08:09:30.845479  7952 net.cpp:129] Top shape: 1 512 28 28 (401408)
I0418 08:09:30.845479  7952 net.cpp:137] Memory required for data: 631625776
I0418 08:09:30.845479  7952 layer_factory.cpp:58] Creating layer relu4_4_A
I0418 08:09:30.845479  7952 net.cpp:84] Creating Layer relu4_4_A
I0418 08:09:30.845479  7952 net.cpp:406] relu4_4_A <- conv4_4_A
I0418 08:09:30.845479  7952 net.cpp:367] relu4_4_A -> conv4_4_A (in-place)
I0418 08:09:30.845479  7952 net.cpp:122] Setting up relu4_4_A
I0418 08:09:30.845479  7952 net.cpp:129] Top shape: 1 512 28 28 (401408)
I0418 08:09:30.845479  7952 net.cpp:137] Memory required for data: 633231408
I0418 08:09:30.845479  7952 layer_factory.cpp:58] Creating layer pool4_A
I0418 08:09:30.845479  7952 net.cpp:84] Creating Layer pool4_A
I0418 08:09:30.845479  7952 net.cpp:406] pool4_A <- conv4_4_A
I0418 08:09:30.845479  7952 net.cpp:380] pool4_A -> pool4_A
I0418 08:09:30.845479  7952 net.cpp:122] Setting up pool4_A
I0418 08:09:30.845479  7952 net.cpp:129] Top shape: 1 512 14 14 (100352)
I0418 08:09:30.845479  7952 net.cpp:137] Memory required for data: 633632816
I0418 08:09:30.845479  7952 layer_factory.cpp:58] Creating layer conv5_1_A
I0418 08:09:30.845479  7952 net.cpp:84] Creating Layer conv5_1_A
I0418 08:09:30.845479  7952 net.cpp:406] conv5_1_A <- pool4_A
I0418 08:09:30.845479  7952 net.cpp:380] conv5_1_A -> conv5_1_A
I0418 08:09:31.423626  7952 cudnn_conv_layer.cpp:194] Reallocating workspace storage: 10838016
I0418 08:09:31.423626  7952 net.cpp:122] Setting up conv5_1_A
I0418 08:09:31.423626  7952 net.cpp:129] Top shape: 1 512 14 14 (100352)
I0418 08:09:31.423626  7952 net.cpp:137] Memory required for data: 634034224
I0418 08:09:31.423626  7952 layer_factory.cpp:58] Creating layer relu5_1_A
I0418 08:09:31.423626  7952 net.cpp:84] Creating Layer relu5_1_A
I0418 08:09:31.423626  7952 net.cpp:406] relu5_1_A <- conv5_1_A
I0418 08:09:31.423626  7952 net.cpp:367] relu5_1_A -> conv5_1_A (in-place)
I0418 08:09:31.423626  7952 net.cpp:122] Setting up relu5_1_A
I0418 08:09:31.423626  7952 net.cpp:129] Top shape: 1 512 14 14 (100352)
I0418 08:09:31.423626  7952 net.cpp:137] Memory required for data: 634435632
I0418 08:09:31.423626  7952 layer_factory.cpp:58] Creating layer conv5_2_A
I0418 08:09:31.423626  7952 net.cpp:84] Creating Layer conv5_2_A
I0418 08:09:31.423626  7952 net.cpp:406] conv5_2_A <- conv5_1_A
I0418 08:09:31.423626  7952 net.cpp:380] conv5_2_A -> conv5_2_A
I0418 08:09:31.986146  7952 cudnn_conv_layer.cpp:194] Reallocating workspace storage: 10838016
I0418 08:09:31.986146  7952 net.cpp:122] Setting up conv5_2_A
I0418 08:09:31.986146  7952 net.cpp:129] Top shape: 1 512 14 14 (100352)
I0418 08:09:31.986146  7952 net.cpp:137] Memory required for data: 634837040
I0418 08:09:31.986146  7952 layer_factory.cpp:58] Creating layer relu5_2_A
I0418 08:09:31.986146  7952 net.cpp:84] Creating Layer relu5_2_A
I0418 08:09:31.986146  7952 net.cpp:406] relu5_2_A <- conv5_2_A
I0418 08:09:31.986146  7952 net.cpp:367] relu5_2_A -> conv5_2_A (in-place)
I0418 08:09:31.986146  7952 net.cpp:122] Setting up relu5_2_A
I0418 08:09:31.986146  7952 net.cpp:129] Top shape: 1 512 14 14 (100352)
I0418 08:09:31.986146  7952 net.cpp:137] Memory required for data: 635238448
I0418 08:09:31.986146  7952 layer_factory.cpp:58] Creating layer conv5_3_A
I0418 08:09:31.986146  7952 net.cpp:84] Creating Layer conv5_3_A
I0418 08:09:31.986146  7952 net.cpp:406] conv5_3_A <- conv5_2_A
I0418 08:09:31.986146  7952 net.cpp:380] conv5_3_A -> conv5_3_A
I0418 08:09:32.564294  7952 cudnn_conv_layer.cpp:194] Reallocating workspace storage: 10838016
I0418 08:09:32.564294  7952 net.cpp:122] Setting up conv5_3_A
I0418 08:09:32.564294  7952 net.cpp:129] Top shape: 1 512 14 14 (100352)
I0418 08:09:32.564294  7952 net.cpp:137] Memory required for data: 635639856
I0418 08:09:32.564294  7952 layer_factory.cpp:58] Creating layer relu5_3_A
I0418 08:09:32.564294  7952 net.cpp:84] Creating Layer relu5_3_A
I0418 08:09:32.564294  7952 net.cpp:406] relu5_3_A <- conv5_3_A
I0418 08:09:32.564294  7952 net.cpp:367] relu5_3_A -> conv5_3_A (in-place)
I0418 08:09:32.564294  7952 net.cpp:122] Setting up relu5_3_A
I0418 08:09:32.564294  7952 net.cpp:129] Top shape: 1 512 14 14 (100352)
I0418 08:09:32.564294  7952 net.cpp:137] Memory required for data: 636041264
I0418 08:09:32.564294  7952 layer_factory.cpp:58] Creating layer conv5_4_A
I0418 08:09:32.564294  7952 net.cpp:84] Creating Layer conv5_4_A
I0418 08:09:32.564294  7952 net.cpp:406] conv5_4_A <- conv5_3_A
I0418 08:09:32.564294  7952 net.cpp:380] conv5_4_A -> conv5_4_A
I0418 08:09:33.126816  7952 cudnn_conv_layer.cpp:194] Reallocating workspace storage: 10838016
I0418 08:09:33.126816  7952 net.cpp:122] Setting up conv5_4_A
I0418 08:09:33.126816  7952 net.cpp:129] Top shape: 1 512 14 14 (100352)
I0418 08:09:33.126816  7952 net.cpp:137] Memory required for data: 636442672
I0418 08:09:33.126816  7952 layer_factory.cpp:58] Creating layer relu5_4_A
I0418 08:09:33.126816  7952 net.cpp:84] Creating Layer relu5_4_A
I0418 08:09:33.126816  7952 net.cpp:406] relu5_4_A <- conv5_4_A
I0418 08:09:33.126816  7952 net.cpp:367] relu5_4_A -> conv5_4_A (in-place)
I0418 08:09:33.126816  7952 net.cpp:122] Setting up relu5_4_A
I0418 08:09:33.142442  7952 net.cpp:129] Top shape: 1 512 14 14 (100352)
I0418 08:09:33.142442  7952 net.cpp:137] Memory required for data: 636844080
I0418 08:09:33.142442  7952 layer_factory.cpp:58] Creating layer conv5_4_A_relu5_4_A_0_split
I0418 08:09:33.142442  7952 net.cpp:84] Creating Layer conv5_4_A_relu5_4_A_0_split
I0418 08:09:33.142442  7952 net.cpp:406] conv5_4_A_relu5_4_A_0_split <- conv5_4_A
I0418 08:09:33.142442  7952 net.cpp:380] conv5_4_A_relu5_4_A_0_split -> conv5_4_A_relu5_4_A_0_split_0
I0418 08:09:33.142442  7952 net.cpp:380] conv5_4_A_relu5_4_A_0_split -> conv5_4_A_relu5_4_A_0_split_1
I0418 08:09:33.142442  7952 net.cpp:122] Setting up conv5_4_A_relu5_4_A_0_split
I0418 08:09:33.142442  7952 net.cpp:129] Top shape: 1 512 14 14 (100352)
I0418 08:09:33.142442  7952 net.cpp:129] Top shape: 1 512 14 14 (100352)
I0418 08:09:33.142442  7952 net.cpp:137] Memory required for data: 637646896
I0418 08:09:33.142442  7952 layer_factory.cpp:58] Creating layer pool5_A
I0418 08:09:33.142442  7952 net.cpp:84] Creating Layer pool5_A
I0418 08:09:33.142442  7952 net.cpp:406] pool5_A <- conv5_4_A_relu5_4_A_0_split_0
I0418 08:09:33.142442  7952 net.cpp:380] pool5_A -> pool5_A
I0418 08:09:33.142442  7952 net.cpp:122] Setting up pool5_A
I0418 08:09:33.142442  7952 net.cpp:129] Top shape: 1 512 1 1 (512)
I0418 08:09:33.142442  7952 net.cpp:137] Memory required for data: 637648944
I0418 08:09:33.142442  7952 layer_factory.cpp:58] Creating layer get_abc1_A
I0418 08:09:33.142442  7952 net.cpp:84] Creating Layer get_abc1_A
I0418 08:09:33.142442  7952 net.cpp:406] get_abc1_A <- conv5_4_A_relu5_4_A_0_split_1
I0418 08:09:33.142442  7952 net.cpp:380] get_abc1_A -> get_abc1_A
I0418 08:09:57.924664  7952 net.cpp:122] Setting up get_abc1_A
I0418 08:09:57.924664  7952 net.cpp:129] Top shape: 1 1024 (1024)
I0418 08:09:57.924664  7952 net.cpp:137] Memory required for data: 637653040
I0418 08:09:57.924664  7952 layer_factory.cpp:58] Creating layer tanh_A
I0418 08:09:57.924664  7952 net.cpp:84] Creating Layer tanh_A
I0418 08:09:57.924664  7952 net.cpp:406] tanh_A <- get_abc1_A
I0418 08:09:57.924664  7952 net.cpp:380] tanh_A -> tanh_A
I0418 08:09:57.924664  7952 net.cpp:122] Setting up tanh_A
I0418 08:09:57.924664  7952 net.cpp:129] Top shape: 1 1024 (1024)
I0418 08:09:57.924664  7952 net.cpp:137] Memory required for data: 637657136
I0418 08:09:57.924664  7952 layer_factory.cpp:58] Creating layer get_abc2_A
I0418 08:09:57.924664  7952 net.cpp:84] Creating Layer get_abc2_A
I0418 08:09:57.924664  7952 net.cpp:406] get_abc2_A <- tanh_A
I0418 08:09:57.924664  7952 net.cpp:380] get_abc2_A -> get_abc2_A
I0418 08:09:57.924664  7952 net.cpp:122] Setting up get_abc2_A
I0418 08:09:57.924664  7952 net.cpp:129] Top shape: 1 3 (3)
I0418 08:09:57.924664  7952 net.cpp:137] Memory required for data: 637657148
I0418 08:09:57.924664  7952 layer_factory.cpp:58] Creating layer sigmoid_A
I0418 08:09:57.924664  7952 net.cpp:84] Creating Layer sigmoid_A
I0418 08:09:57.924664  7952 net.cpp:406] sigmoid_A <- get_abc2_A
I0418 08:09:57.924664  7952 net.cpp:380] sigmoid_A -> sig_abc_A
I0418 08:09:57.924664  7952 net.cpp:122] Setting up sigmoid_A
I0418 08:09:57.924664  7952 net.cpp:129] Top shape: 1 3 (3)
I0418 08:09:57.924664  7952 net.cpp:137] Memory required for data: 637657160
I0418 08:09:57.924664  7952 layer_factory.cpp:58] Creating layer get224
I0418 08:09:57.924664  7952 net.cpp:84] Creating Layer get224
I0418 08:09:57.924664  7952 net.cpp:406] get224 <- sig_abc_A
I0418 08:09:57.924664  7952 net.cpp:380] get224 -> get224
I0418 08:09:57.924664  7952 net.cpp:122] Setting up get224
I0418 08:09:57.924664  7952 net.cpp:129] Top shape: 1 3 (3)
I0418 08:09:57.924664  7952 net.cpp:137] Memory required for data: 637657172
I0418 08:09:57.924664  7952 layer_factory.cpp:58] Creating layer atten_crop_A
I0418 08:09:57.924664  7952 net.cpp:84] Creating Layer atten_crop_A
I0418 08:09:57.924664  7952 net.cpp:406] atten_crop_A <- scale2_data_atten_crop_0_split_1
I0418 08:09:57.924664  7952 net.cpp:406] atten_crop_A <- get224
I0418 08:09:57.924664  7952 net.cpp:380] atten_crop_A -> scale3_data
I0418 08:09:57.924664  7952 net.cpp:122] Setting up atten_crop_A
I0418 08:09:57.924664  7952 net.cpp:129] Top shape: 1 3 224 224 (150528)
I0418 08:09:57.924664  7952 net.cpp:137] Memory required for data: 638259284
I0418 08:09:57.924664  7952 layer_factory.cpp:58] Creating layer conv1_1_A_A
I0418 08:09:57.924664  7952 net.cpp:84] Creating Layer conv1_1_A_A
I0418 08:09:57.924664  7952 net.cpp:406] conv1_1_A_A <- scale3_data
I0418 08:09:57.924664  7952 net.cpp:380] conv1_1_A_A -> conv1_1_A_A
I0418 08:09:57.924664  7952 net.cpp:122] Setting up conv1_1_A_A
I0418 08:09:57.924664  7952 net.cpp:129] Top shape: 1 64 224 224 (3211264)
I0418 08:09:57.924664  7952 net.cpp:137] Memory required for data: 651104340
I0418 08:09:57.924664  7952 layer_factory.cpp:58] Creating layer relu1_1_A_A
I0418 08:09:57.924664  7952 net.cpp:84] Creating Layer relu1_1_A_A
I0418 08:09:57.924664  7952 net.cpp:406] relu1_1_A_A <- conv1_1_A_A
I0418 08:09:57.924664  7952 net.cpp:367] relu1_1_A_A -> conv1_1_A_A (in-place)
I0418 08:09:57.924664  7952 net.cpp:122] Setting up relu1_1_A_A
I0418 08:09:57.924664  7952 net.cpp:129] Top shape: 1 64 224 224 (3211264)
I0418 08:09:57.924664  7952 net.cpp:137] Memory required for data: 663949396
I0418 08:09:57.924664  7952 layer_factory.cpp:58] Creating layer conv1_2_A_A
I0418 08:09:57.924664  7952 net.cpp:84] Creating Layer conv1_2_A_A
I0418 08:09:57.924664  7952 net.cpp:406] conv1_2_A_A <- conv1_1_A_A
I0418 08:09:57.924664  7952 net.cpp:380] conv1_2_A_A -> conv1_2_A_A
I0418 08:09:57.940289  7952 cudnn_conv_layer.cpp:194] Reallocating workspace storage: 6912
I0418 08:09:57.940289  7952 net.cpp:122] Setting up conv1_2_A_A
I0418 08:09:57.940289  7952 net.cpp:129] Top shape: 1 64 224 224 (3211264)
I0418 08:09:57.940289  7952 net.cpp:137] Memory required for data: 676794452
I0418 08:09:57.940289  7952 layer_factory.cpp:58] Creating layer relu1_2_A_A
I0418 08:09:57.940289  7952 net.cpp:84] Creating Layer relu1_2_A_A
I0418 08:09:57.940289  7952 net.cpp:406] relu1_2_A_A <- conv1_2_A_A
I0418 08:09:57.940289  7952 net.cpp:367] relu1_2_A_A -> conv1_2_A_A (in-place)
I0418 08:09:57.940289  7952 net.cpp:122] Setting up relu1_2_A_A
I0418 08:09:57.940289  7952 net.cpp:129] Top shape: 1 64 224 224 (3211264)
I0418 08:09:57.940289  7952 net.cpp:137] Memory required for data: 689639508
I0418 08:09:57.940289  7952 layer_factory.cpp:58] Creating layer pool1_A_A
I0418 08:09:57.940289  7952 net.cpp:84] Creating Layer pool1_A_A
I0418 08:09:57.940289  7952 net.cpp:406] pool1_A_A <- conv1_2_A_A
I0418 08:09:57.940289  7952 net.cpp:380] pool1_A_A -> pool1_A_A
I0418 08:09:57.940289  7952 net.cpp:122] Setting up pool1_A_A
I0418 08:09:57.940289  7952 net.cpp:129] Top shape: 1 64 112 112 (802816)
I0418 08:09:57.940289  7952 net.cpp:137] Memory required for data: 692850772
I0418 08:09:57.940289  7952 layer_factory.cpp:58] Creating layer conv2_1_A_A
I0418 08:09:57.940289  7952 net.cpp:84] Creating Layer conv2_1_A_A
I0418 08:09:57.940289  7952 net.cpp:406] conv2_1_A_A <- pool1_A_A
I0418 08:09:57.940289  7952 net.cpp:380] conv2_1_A_A -> conv2_1_A_A
I0418 08:09:57.955915  7952 cudnn_conv_layer.cpp:194] Reallocating workspace storage: 6912
I0418 08:09:57.955915  7952 net.cpp:122] Setting up conv2_1_A_A
I0418 08:09:57.971541  7952 net.cpp:129] Top shape: 1 128 112 112 (1605632)
I0418 08:09:57.971541  7952 net.cpp:137] Memory required for data: 699273300
I0418 08:09:57.971541  7952 layer_factory.cpp:58] Creating layer relu2_1_A_A
I0418 08:09:57.971541  7952 net.cpp:84] Creating Layer relu2_1_A_A
I0418 08:09:57.971541  7952 net.cpp:406] relu2_1_A_A <- conv2_1_A_A
I0418 08:09:57.971541  7952 net.cpp:367] relu2_1_A_A -> conv2_1_A_A (in-place)
I0418 08:09:57.971541  7952 net.cpp:122] Setting up relu2_1_A_A
I0418 08:09:57.971541  7952 net.cpp:129] Top shape: 1 128 112 112 (1605632)
I0418 08:09:57.971541  7952 net.cpp:137] Memory required for data: 705695828
I0418 08:09:57.971541  7952 layer_factory.cpp:58] Creating layer conv2_2_A_A
I0418 08:09:57.971541  7952 net.cpp:84] Creating Layer conv2_2_A_A
I0418 08:09:57.971541  7952 net.cpp:406] conv2_2_A_A <- conv2_1_A_A
I0418 08:09:57.971541  7952 net.cpp:380] conv2_2_A_A -> conv2_2_A_A
I0418 08:09:58.002792  7952 cudnn_conv_layer.cpp:194] Reallocating workspace storage: 13824
I0418 08:09:58.002792  7952 net.cpp:122] Setting up conv2_2_A_A
I0418 08:09:58.002792  7952 net.cpp:129] Top shape: 1 128 112 112 (1605632)
I0418 08:09:58.002792  7952 net.cpp:137] Memory required for data: 712118356
I0418 08:09:58.002792  7952 layer_factory.cpp:58] Creating layer relu2_2_A_A
I0418 08:09:58.002792  7952 net.cpp:84] Creating Layer relu2_2_A_A
I0418 08:09:58.002792  7952 net.cpp:406] relu2_2_A_A <- conv2_2_A_A
I0418 08:09:58.002792  7952 net.cpp:367] relu2_2_A_A -> conv2_2_A_A (in-place)
I0418 08:09:58.002792  7952 net.cpp:122] Setting up relu2_2_A_A
I0418 08:09:58.002792  7952 net.cpp:129] Top shape: 1 128 112 112 (1605632)
I0418 08:09:58.002792  7952 net.cpp:137] Memory required for data: 718540884
I0418 08:09:58.002792  7952 layer_factory.cpp:58] Creating layer pool2_A_A
I0418 08:09:58.002792  7952 net.cpp:84] Creating Layer pool2_A_A
I0418 08:09:58.002792  7952 net.cpp:406] pool2_A_A <- conv2_2_A_A
I0418 08:09:58.002792  7952 net.cpp:380] pool2_A_A -> pool2_A_A
I0418 08:09:58.002792  7952 net.cpp:122] Setting up pool2_A_A
I0418 08:09:58.002792  7952 net.cpp:129] Top shape: 1 128 56 56 (401408)
I0418 08:09:58.002792  7952 net.cpp:137] Memory required for data: 720146516
I0418 08:09:58.002792  7952 layer_factory.cpp:58] Creating layer conv3_1_A_A
I0418 08:09:58.002792  7952 net.cpp:84] Creating Layer conv3_1_A_A
I0418 08:09:58.002792  7952 net.cpp:406] conv3_1_A_A <- pool2_A_A
I0418 08:09:58.002792  7952 net.cpp:380] conv3_1_A_A -> conv3_1_A_A
I0418 08:09:58.080920  7952 cudnn_conv_layer.cpp:194] Reallocating workspace storage: 13824
I0418 08:09:58.080920  7952 net.cpp:122] Setting up conv3_1_A_A
I0418 08:09:58.080920  7952 net.cpp:129] Top shape: 1 256 56 56 (802816)
I0418 08:09:58.080920  7952 net.cpp:137] Memory required for data: 723357780
I0418 08:09:58.080920  7952 layer_factory.cpp:58] Creating layer relu3_1_A_A
I0418 08:09:58.080920  7952 net.cpp:84] Creating Layer relu3_1_A_A
I0418 08:09:58.080920  7952 net.cpp:406] relu3_1_A_A <- conv3_1_A_A
I0418 08:09:58.080920  7952 net.cpp:367] relu3_1_A_A -> conv3_1_A_A (in-place)
I0418 08:09:58.080920  7952 net.cpp:122] Setting up relu3_1_A_A
I0418 08:09:58.080920  7952 net.cpp:129] Top shape: 1 256 56 56 (802816)
I0418 08:09:58.080920  7952 net.cpp:137] Memory required for data: 726569044
I0418 08:09:58.080920  7952 layer_factory.cpp:58] Creating layer conv3_2_A_A
I0418 08:09:58.080920  7952 net.cpp:84] Creating Layer conv3_2_A_A
I0418 08:09:58.080920  7952 net.cpp:406] conv3_2_A_A <- conv3_1_A_A
I0418 08:09:58.080920  7952 net.cpp:380] conv3_2_A_A -> conv3_2_A_A
I0418 08:09:58.221552  7952 cudnn_conv_layer.cpp:194] Reallocating workspace storage: 27648
I0418 08:09:58.221552  7952 net.cpp:122] Setting up conv3_2_A_A
I0418 08:09:58.221552  7952 net.cpp:129] Top shape: 1 256 56 56 (802816)
I0418 08:09:58.221552  7952 net.cpp:137] Memory required for data: 729780308
I0418 08:09:58.221552  7952 layer_factory.cpp:58] Creating layer relu3_2_A_A
I0418 08:09:58.221552  7952 net.cpp:84] Creating Layer relu3_2_A_A
I0418 08:09:58.221552  7952 net.cpp:406] relu3_2_A_A <- conv3_2_A_A
I0418 08:09:58.221552  7952 net.cpp:367] relu3_2_A_A -> conv3_2_A_A (in-place)
I0418 08:09:58.221552  7952 net.cpp:122] Setting up relu3_2_A_A
I0418 08:09:58.221552  7952 net.cpp:129] Top shape: 1 256 56 56 (802816)
I0418 08:09:58.221552  7952 net.cpp:137] Memory required for data: 732991572
I0418 08:09:58.221552  7952 layer_factory.cpp:58] Creating layer conv3_3_A_A
I0418 08:09:58.221552  7952 net.cpp:84] Creating Layer conv3_3_A_A
I0418 08:09:58.221552  7952 net.cpp:406] conv3_3_A_A <- conv3_2_A_A
I0418 08:09:58.221552  7952 net.cpp:380] conv3_3_A_A -> conv3_3_A_A
I0418 08:09:58.362184  7952 cudnn_conv_layer.cpp:194] Reallocating workspace storage: 27648
I0418 08:09:58.362184  7952 net.cpp:122] Setting up conv3_3_A_A
I0418 08:09:58.362184  7952 net.cpp:129] Top shape: 1 256 56 56 (802816)
I0418 08:09:58.362184  7952 net.cpp:137] Memory required for data: 736202836
I0418 08:09:58.362184  7952 layer_factory.cpp:58] Creating layer relu3_3_A_A
I0418 08:09:58.362184  7952 net.cpp:84] Creating Layer relu3_3_A_A
I0418 08:09:58.362184  7952 net.cpp:406] relu3_3_A_A <- conv3_3_A_A
I0418 08:09:58.377807  7952 net.cpp:367] relu3_3_A_A -> conv3_3_A_A (in-place)
I0418 08:09:58.377807  7952 net.cpp:122] Setting up relu3_3_A_A
I0418 08:09:58.377807  7952 net.cpp:129] Top shape: 1 256 56 56 (802816)
I0418 08:09:58.377807  7952 net.cpp:137] Memory required for data: 739414100
I0418 08:09:58.377807  7952 layer_factory.cpp:58] Creating layer conv3_4_A_A
I0418 08:09:58.377807  7952 net.cpp:84] Creating Layer conv3_4_A_A
I0418 08:09:58.377807  7952 net.cpp:406] conv3_4_A_A <- conv3_3_A_A
I0418 08:09:58.377807  7952 net.cpp:380] conv3_4_A_A -> conv3_4_A_A
I0418 08:09:58.518440  7952 cudnn_conv_layer.cpp:194] Reallocating workspace storage: 27648
I0418 08:09:58.518440  7952 net.cpp:122] Setting up conv3_4_A_A
I0418 08:09:58.518440  7952 net.cpp:129] Top shape: 1 256 56 56 (802816)
I0418 08:09:58.518440  7952 net.cpp:137] Memory required for data: 742625364
I0418 08:09:58.518440  7952 layer_factory.cpp:58] Creating layer relu3_4_A_A
I0418 08:09:58.518440  7952 net.cpp:84] Creating Layer relu3_4_A_A
I0418 08:09:58.518440  7952 net.cpp:406] relu3_4_A_A <- conv3_4_A_A
I0418 08:09:58.518440  7952 net.cpp:367] relu3_4_A_A -> conv3_4_A_A (in-place)
I0418 08:09:58.518440  7952 net.cpp:122] Setting up relu3_4_A_A
I0418 08:09:58.518440  7952 net.cpp:129] Top shape: 1 256 56 56 (802816)
I0418 08:09:58.518440  7952 net.cpp:137] Memory required for data: 745836628
I0418 08:09:58.518440  7952 layer_factory.cpp:58] Creating layer pool3_A_A
I0418 08:09:58.518440  7952 net.cpp:84] Creating Layer pool3_A_A
I0418 08:09:58.518440  7952 net.cpp:406] pool3_A_A <- conv3_4_A_A
I0418 08:09:58.518440  7952 net.cpp:380] pool3_A_A -> pool3_A_A
I0418 08:09:58.518440  7952 net.cpp:122] Setting up pool3_A_A
I0418 08:09:58.518440  7952 net.cpp:129] Top shape: 1 256 28 28 (200704)
I0418 08:09:58.518440  7952 net.cpp:137] Memory required for data: 746639444
I0418 08:09:58.518440  7952 layer_factory.cpp:58] Creating layer conv4_1_A_A
I0418 08:09:58.518440  7952 net.cpp:84] Creating Layer conv4_1_A_A
I0418 08:09:58.518440  7952 net.cpp:406] conv4_1_A_A <- pool3_A_A
I0418 08:09:58.518440  7952 net.cpp:380] conv4_1_A_A -> conv4_1_A_A
I0418 08:09:58.799700  7952 cudnn_conv_layer.cpp:194] Reallocating workspace storage: 27648
I0418 08:09:58.799700  7952 net.cpp:122] Setting up conv4_1_A_A
I0418 08:09:58.799700  7952 net.cpp:129] Top shape: 1 512 28 28 (401408)
I0418 08:09:58.799700  7952 net.cpp:137] Memory required for data: 748245076
I0418 08:09:58.799700  7952 layer_factory.cpp:58] Creating layer relu4_1_A_A
I0418 08:09:58.799700  7952 net.cpp:84] Creating Layer relu4_1_A_A
I0418 08:09:58.799700  7952 net.cpp:406] relu4_1_A_A <- conv4_1_A_A
I0418 08:09:58.799700  7952 net.cpp:367] relu4_1_A_A -> conv4_1_A_A (in-place)
I0418 08:09:58.799700  7952 net.cpp:122] Setting up relu4_1_A_A
I0418 08:09:58.799700  7952 net.cpp:129] Top shape: 1 512 28 28 (401408)
I0418 08:09:58.799700  7952 net.cpp:137] Memory required for data: 749850708
I0418 08:09:58.799700  7952 layer_factory.cpp:58] Creating layer conv4_2_A_A
I0418 08:09:58.799700  7952 net.cpp:84] Creating Layer conv4_2_A_A
I0418 08:09:58.799700  7952 net.cpp:406] conv4_2_A_A <- conv4_1_A_A
I0418 08:09:58.799700  7952 net.cpp:380] conv4_2_A_A -> conv4_2_A_A
I0418 08:09:59.377848  7952 cudnn_conv_layer.cpp:194] Reallocating workspace storage: 55296
I0418 08:09:59.377848  7952 net.cpp:122] Setting up conv4_2_A_A
I0418 08:09:59.377848  7952 net.cpp:129] Top shape: 1 512 28 28 (401408)
I0418 08:09:59.377848  7952 net.cpp:137] Memory required for data: 751456340
I0418 08:09:59.377848  7952 layer_factory.cpp:58] Creating layer relu4_2_A_A
I0418 08:09:59.377848  7952 net.cpp:84] Creating Layer relu4_2_A_A
I0418 08:09:59.380990  7952 net.cpp:406] relu4_2_A_A <- conv4_2_A_A
I0418 08:09:59.380990  7952 net.cpp:367] relu4_2_A_A -> conv4_2_A_A (in-place)
I0418 08:09:59.380990  7952 net.cpp:122] Setting up relu4_2_A_A
I0418 08:09:59.380990  7952 net.cpp:129] Top shape: 1 512 28 28 (401408)
I0418 08:09:59.380990  7952 net.cpp:137] Memory required for data: 753061972
I0418 08:09:59.380990  7952 layer_factory.cpp:58] Creating layer conv4_3_A_A
I0418 08:09:59.380990  7952 net.cpp:84] Creating Layer conv4_3_A_A
I0418 08:09:59.380990  7952 net.cpp:406] conv4_3_A_A <- conv4_2_A_A
I0418 08:09:59.380990  7952 net.cpp:380] conv4_3_A_A -> conv4_3_A_A
I0418 08:09:59.943516  7952 cudnn_conv_layer.cpp:194] Reallocating workspace storage: 55296
I0418 08:09:59.943516  7952 net.cpp:122] Setting up conv4_3_A_A
I0418 08:09:59.943516  7952 net.cpp:129] Top shape: 1 512 28 28 (401408)
I0418 08:09:59.943516  7952 net.cpp:137] Memory required for data: 754667604
I0418 08:09:59.943516  7952 layer_factory.cpp:58] Creating layer relu4_3_A_A
I0418 08:09:59.943516  7952 net.cpp:84] Creating Layer relu4_3_A_A
I0418 08:09:59.943516  7952 net.cpp:406] relu4_3_A_A <- conv4_3_A_A
I0418 08:09:59.943516  7952 net.cpp:367] relu4_3_A_A -> conv4_3_A_A (in-place)
I0418 08:09:59.943516  7952 net.cpp:122] Setting up relu4_3_A_A
I0418 08:09:59.943516  7952 net.cpp:129] Top shape: 1 512 28 28 (401408)
I0418 08:09:59.943516  7952 net.cpp:137] Memory required for data: 756273236
I0418 08:09:59.943516  7952 layer_factory.cpp:58] Creating layer conv4_4_A_A
I0418 08:09:59.943516  7952 net.cpp:84] Creating Layer conv4_4_A_A
I0418 08:09:59.943516  7952 net.cpp:406] conv4_4_A_A <- conv4_3_A_A
I0418 08:09:59.943516  7952 net.cpp:380] conv4_4_A_A -> conv4_4_A_A
I0418 08:10:00.506038  7952 cudnn_conv_layer.cpp:194] Reallocating workspace storage: 55296
I0418 08:10:00.506038  7952 net.cpp:122] Setting up conv4_4_A_A
I0418 08:10:00.506038  7952 net.cpp:129] Top shape: 1 512 28 28 (401408)
I0418 08:10:00.506038  7952 net.cpp:137] Memory required for data: 757878868
I0418 08:10:00.521663  7952 layer_factory.cpp:58] Creating layer relu4_4_A_A
I0418 08:10:00.521663  7952 net.cpp:84] Creating Layer relu4_4_A_A
I0418 08:10:00.521663  7952 net.cpp:406] relu4_4_A_A <- conv4_4_A_A
I0418 08:10:00.521663  7952 net.cpp:367] relu4_4_A_A -> conv4_4_A_A (in-place)
I0418 08:10:00.521663  7952 net.cpp:122] Setting up relu4_4_A_A
I0418 08:10:00.521663  7952 net.cpp:129] Top shape: 1 512 28 28 (401408)
I0418 08:10:00.521663  7952 net.cpp:137] Memory required for data: 759484500
I0418 08:10:00.521663  7952 layer_factory.cpp:58] Creating layer pool4_A_A
I0418 08:10:00.521663  7952 net.cpp:84] Creating Layer pool4_A_A
I0418 08:10:00.521663  7952 net.cpp:406] pool4_A_A <- conv4_4_A_A
I0418 08:10:00.521663  7952 net.cpp:380] pool4_A_A -> pool4_A_A
I0418 08:10:00.521663  7952 net.cpp:122] Setting up pool4_A_A
I0418 08:10:00.521663  7952 net.cpp:129] Top shape: 1 512 14 14 (100352)
I0418 08:10:00.521663  7952 net.cpp:137] Memory required for data: 759885908
I0418 08:10:00.521663  7952 layer_factory.cpp:58] Creating layer conv5_1_A_A
I0418 08:10:00.521663  7952 net.cpp:84] Creating Layer conv5_1_A_A
I0418 08:10:00.521663  7952 net.cpp:406] conv5_1_A_A <- pool4_A_A
I0418 08:10:00.521663  7952 net.cpp:380] conv5_1_A_A -> conv5_1_A_A
I0418 08:10:01.084187  7952 cudnn_conv_layer.cpp:194] Reallocating workspace storage: 10838016
I0418 08:10:01.084187  7952 net.cpp:122] Setting up conv5_1_A_A
I0418 08:10:01.084187  7952 net.cpp:129] Top shape: 1 512 14 14 (100352)
I0418 08:10:01.084187  7952 net.cpp:137] Memory required for data: 760287316
I0418 08:10:01.084187  7952 layer_factory.cpp:58] Creating layer relu5_1_A_A
I0418 08:10:01.084187  7952 net.cpp:84] Creating Layer relu5_1_A_A
I0418 08:10:01.084187  7952 net.cpp:406] relu5_1_A_A <- conv5_1_A_A
I0418 08:10:01.084187  7952 net.cpp:367] relu5_1_A_A -> conv5_1_A_A (in-place)
I0418 08:10:01.084187  7952 net.cpp:122] Setting up relu5_1_A_A
I0418 08:10:01.084187  7952 net.cpp:129] Top shape: 1 512 14 14 (100352)
I0418 08:10:01.084187  7952 net.cpp:137] Memory required for data: 760688724
I0418 08:10:01.084187  7952 layer_factory.cpp:58] Creating layer conv5_2_A_A
I0418 08:10:01.084187  7952 net.cpp:84] Creating Layer conv5_2_A_A
I0418 08:10:01.084187  7952 net.cpp:406] conv5_2_A_A <- conv5_1_A_A
I0418 08:10:01.084187  7952 net.cpp:380] conv5_2_A_A -> conv5_2_A_A
I0418 08:10:01.662334  7952 cudnn_conv_layer.cpp:194] Reallocating workspace storage: 10838016
I0418 08:10:01.662334  7952 net.cpp:122] Setting up conv5_2_A_A
I0418 08:10:01.662334  7952 net.cpp:129] Top shape: 1 512 14 14 (100352)
I0418 08:10:01.662334  7952 net.cpp:137] Memory required for data: 761090132
I0418 08:10:01.662334  7952 layer_factory.cpp:58] Creating layer relu5_2_A_A
I0418 08:10:01.662334  7952 net.cpp:84] Creating Layer relu5_2_A_A
I0418 08:10:01.662334  7952 net.cpp:406] relu5_2_A_A <- conv5_2_A_A
I0418 08:10:01.662334  7952 net.cpp:367] relu5_2_A_A -> conv5_2_A_A (in-place)
I0418 08:10:01.662334  7952 net.cpp:122] Setting up relu5_2_A_A
I0418 08:10:01.662334  7952 net.cpp:129] Top shape: 1 512 14 14 (100352)
I0418 08:10:01.662334  7952 net.cpp:137] Memory required for data: 761491540
I0418 08:10:01.662334  7952 layer_factory.cpp:58] Creating layer conv5_3_A_A
I0418 08:10:01.662334  7952 net.cpp:84] Creating Layer conv5_3_A_A
I0418 08:10:01.662334  7952 net.cpp:406] conv5_3_A_A <- conv5_2_A_A
I0418 08:10:01.662334  7952 net.cpp:380] conv5_3_A_A -> conv5_3_A_A
I0418 08:10:02.224856  7952 cudnn_conv_layer.cpp:194] Reallocating workspace storage: 10838016
I0418 08:10:02.224856  7952 net.cpp:122] Setting up conv5_3_A_A
I0418 08:10:02.224856  7952 net.cpp:129] Top shape: 1 512 14 14 (100352)
I0418 08:10:02.224856  7952 net.cpp:137] Memory required for data: 761892948
I0418 08:10:02.224856  7952 layer_factory.cpp:58] Creating layer relu5_3_A_A
I0418 08:10:02.224856  7952 net.cpp:84] Creating Layer relu5_3_A_A
I0418 08:10:02.224856  7952 net.cpp:406] relu5_3_A_A <- conv5_3_A_A
I0418 08:10:02.224856  7952 net.cpp:367] relu5_3_A_A -> conv5_3_A_A (in-place)
I0418 08:10:02.224856  7952 net.cpp:122] Setting up relu5_3_A_A
I0418 08:10:02.224856  7952 net.cpp:129] Top shape: 1 512 14 14 (100352)
I0418 08:10:02.224856  7952 net.cpp:137] Memory required for data: 762294356
I0418 08:10:02.224856  7952 layer_factory.cpp:58] Creating layer conv5_4_A_A
I0418 08:10:02.224856  7952 net.cpp:84] Creating Layer conv5_4_A_A
I0418 08:10:02.224856  7952 net.cpp:406] conv5_4_A_A <- conv5_3_A_A
I0418 08:10:02.224856  7952 net.cpp:380] conv5_4_A_A -> conv5_4_A_A
I0418 08:10:02.803004  7952 cudnn_conv_layer.cpp:194] Reallocating workspace storage: 10838016
I0418 08:10:02.803004  7952 net.cpp:122] Setting up conv5_4_A_A
I0418 08:10:02.803004  7952 net.cpp:129] Top shape: 1 512 14 14 (100352)
I0418 08:10:02.803004  7952 net.cpp:137] Memory required for data: 762695764
I0418 08:10:02.803004  7952 layer_factory.cpp:58] Creating layer relu5_4_A_A
I0418 08:10:02.803004  7952 net.cpp:84] Creating Layer relu5_4_A_A
I0418 08:10:02.803004  7952 net.cpp:406] relu5_4_A_A <- conv5_4_A_A
I0418 08:10:02.803004  7952 net.cpp:367] relu5_4_A_A -> conv5_4_A_A (in-place)
I0418 08:10:02.803004  7952 net.cpp:122] Setting up relu5_4_A_A
I0418 08:10:02.803004  7952 net.cpp:129] Top shape: 1 512 14 14 (100352)
I0418 08:10:02.803004  7952 net.cpp:137] Memory required for data: 763097172
I0418 08:10:02.803004  7952 layer_factory.cpp:58] Creating layer pool5_A_A
I0418 08:10:02.803004  7952 net.cpp:84] Creating Layer pool5_A_A
I0418 08:10:02.803004  7952 net.cpp:406] pool5_A_A <- conv5_4_A_A
I0418 08:10:02.803004  7952 net.cpp:380] pool5_A_A -> pool5_A_A
I0418 08:10:02.803004  7952 net.cpp:122] Setting up pool5_A_A
I0418 08:10:02.803004  7952 net.cpp:129] Top shape: 1 512 1 1 (512)
I0418 08:10:02.803004  7952 net.cpp:137] Memory required for data: 763099220
I0418 08:10:02.803004  7952 layer_factory.cpp:58] Creating layer reshape1
I0418 08:10:02.803004  7952 net.cpp:84] Creating Layer reshape1
I0418 08:10:02.803004  7952 net.cpp:406] reshape1 <- pool5
I0418 08:10:02.803004  7952 net.cpp:380] reshape1 -> reshape1
I0418 08:10:02.803004  7952 net.cpp:122] Setting up reshape1
I0418 08:10:02.803004  7952 net.cpp:129] Top shape: 1 512 (512)
I0418 08:10:02.803004  7952 net.cpp:137] Memory required for data: 763101268
I0418 08:10:02.803004  7952 layer_factory.cpp:58] Creating layer reshape2
I0418 08:10:02.803004  7952 net.cpp:84] Creating Layer reshape2
I0418 08:10:02.803004  7952 net.cpp:406] reshape2 <- pool5_A
I0418 08:10:02.803004  7952 net.cpp:380] reshape2 -> reshape2
I0418 08:10:02.803004  7952 net.cpp:122] Setting up reshape2
I0418 08:10:02.803004  7952 net.cpp:129] Top shape: 1 512 (512)
I0418 08:10:02.803004  7952 net.cpp:137] Memory required for data: 763103316
I0418 08:10:02.803004  7952 layer_factory.cpp:58] Creating layer reshape3
I0418 08:10:02.803004  7952 net.cpp:84] Creating Layer reshape3
I0418 08:10:02.803004  7952 net.cpp:406] reshape3 <- pool5_A_A
I0418 08:10:02.803004  7952 net.cpp:380] reshape3 -> reshape3
I0418 08:10:02.803004  7952 net.cpp:122] Setting up reshape3
I0418 08:10:02.803004  7952 net.cpp:129] Top shape: 1 512 (512)
I0418 08:10:02.803004  7952 net.cpp:137] Memory required for data: 763105364
I0418 08:10:02.803004  7952 layer_factory.cpp:58] Creating layer pow1
I0418 08:10:02.803004  7952 net.cpp:84] Creating Layer pow1
I0418 08:10:02.803004  7952 net.cpp:406] pow1 <- reshape1
I0418 08:10:02.803004  7952 net.cpp:380] pow1 -> pow1
I0418 08:10:02.803004  7952 net.cpp:122] Setting up pow1
I0418 08:10:02.803004  7952 net.cpp:129] Top shape: 1 512 (512)
I0418 08:10:02.803004  7952 net.cpp:137] Memory required for data: 763107412
I0418 08:10:02.803004  7952 layer_factory.cpp:58] Creating layer pow1_pow1_0_split
I0418 08:10:02.803004  7952 net.cpp:84] Creating Layer pow1_pow1_0_split
I0418 08:10:02.803004  7952 net.cpp:406] pow1_pow1_0_split <- pow1
I0418 08:10:02.803004  7952 net.cpp:380] pow1_pow1_0_split -> pow1_pow1_0_split_0
I0418 08:10:02.803004  7952 net.cpp:380] pow1_pow1_0_split -> pow1_pow1_0_split_1
I0418 08:10:02.803004  7952 net.cpp:122] Setting up pow1_pow1_0_split
I0418 08:10:02.803004  7952 net.cpp:129] Top shape: 1 512 (512)
I0418 08:10:02.803004  7952 net.cpp:129] Top shape: 1 512 (512)
I0418 08:10:02.803004  7952 net.cpp:137] Memory required for data: 763111508
I0418 08:10:02.803004  7952 layer_factory.cpp:58] Creating layer pow2
I0418 08:10:02.803004  7952 net.cpp:84] Creating Layer pow2
I0418 08:10:02.803004  7952 net.cpp:406] pow2 <- reshape2
I0418 08:10:02.803004  7952 net.cpp:380] pow2 -> pow2
I0418 08:10:02.803004  7952 net.cpp:122] Setting up pow2
I0418 08:10:02.803004  7952 net.cpp:129] Top shape: 1 512 (512)
I0418 08:10:02.803004  7952 net.cpp:137] Memory required for data: 763113556
I0418 08:10:02.803004  7952 layer_factory.cpp:58] Creating layer pow2_pow2_0_split
I0418 08:10:02.803004  7952 net.cpp:84] Creating Layer pow2_pow2_0_split
I0418 08:10:02.803004  7952 net.cpp:406] pow2_pow2_0_split <- pow2
I0418 08:10:02.803004  7952 net.cpp:380] pow2_pow2_0_split -> pow2_pow2_0_split_0
I0418 08:10:02.803004  7952 net.cpp:380] pow2_pow2_0_split -> pow2_pow2_0_split_1
I0418 08:10:02.803004  7952 net.cpp:122] Setting up pow2_pow2_0_split
I0418 08:10:02.803004  7952 net.cpp:129] Top shape: 1 512 (512)
I0418 08:10:02.803004  7952 net.cpp:129] Top shape: 1 512 (512)
I0418 08:10:02.803004  7952 net.cpp:137] Memory required for data: 763117652
I0418 08:10:02.803004  7952 layer_factory.cpp:58] Creating layer pow3
I0418 08:10:02.803004  7952 net.cpp:84] Creating Layer pow3
I0418 08:10:02.803004  7952 net.cpp:406] pow3 <- reshape3
I0418 08:10:02.803004  7952 net.cpp:380] pow3 -> pow3
I0418 08:10:02.803004  7952 net.cpp:122] Setting up pow3
I0418 08:10:02.803004  7952 net.cpp:129] Top shape: 1 512 (512)
I0418 08:10:02.803004  7952 net.cpp:137] Memory required for data: 763119700
I0418 08:10:02.803004  7952 layer_factory.cpp:58] Creating layer scale1+2+3
I0418 08:10:02.803004  7952 net.cpp:84] Creating Layer scale1+2+3
I0418 08:10:02.803004  7952 net.cpp:406] scale1+2+3 <- pow2_pow2_0_split_0
I0418 08:10:02.803004  7952 net.cpp:406] scale1+2+3 <- pow1_pow1_0_split_0
I0418 08:10:02.803004  7952 net.cpp:406] scale1+2+3 <- pow3
I0418 08:10:02.803004  7952 net.cpp:380] scale1+2+3 -> scale1+2+3
I0418 08:10:02.818641  7952 net.cpp:122] Setting up scale1+2+3
I0418 08:10:02.818641  7952 net.cpp:129] Top shape: 1 1536 (1536)
I0418 08:10:02.818641  7952 net.cpp:137] Memory required for data: 763125844
I0418 08:10:02.818641  7952 layer_factory.cpp:58] Creating layer scale1+2
I0418 08:10:02.818641  7952 net.cpp:84] Creating Layer scale1+2
I0418 08:10:02.818641  7952 net.cpp:406] scale1+2 <- pow2_pow2_0_split_1
I0418 08:10:02.818641  7952 net.cpp:406] scale1+2 <- pow1_pow1_0_split_1
I0418 08:10:02.818641  7952 net.cpp:380] scale1+2 -> scale1+2
I0418 08:10:02.818641  7952 net.cpp:122] Setting up scale1+2
I0418 08:10:02.818641  7952 net.cpp:129] Top shape: 1 1024 (1024)
I0418 08:10:02.818641  7952 net.cpp:137] Memory required for data: 763129940
I0418 08:10:02.818641  7952 layer_factory.cpp:58] Creating layer fc1
I0418 08:10:02.818641  7952 net.cpp:84] Creating Layer fc1
I0418 08:10:02.818641  7952 net.cpp:406] fc1 <- scale1+2+3
I0418 08:10:02.818641  7952 net.cpp:380] fc1 -> fc1
I0418 08:10:02.881132  7952 net.cpp:122] Setting up fc1
I0418 08:10:02.881132  7952 net.cpp:129] Top shape: 1 200 (200)
I0418 08:10:02.881132  7952 net.cpp:137] Memory required for data: 763130740
I0418 08:10:02.881132  7952 layer_factory.cpp:58] Creating layer accuracy1+2+3
I0418 08:10:02.881132  7952 net.cpp:84] Creating Layer accuracy1+2+3
I0418 08:10:02.881132  7952 net.cpp:406] accuracy1+2+3 <- fc1
I0418 08:10:02.881132  7952 net.cpp:406] accuracy1+2+3 <- label_data_1_split_0
I0418 08:10:02.881132  7952 net.cpp:380] accuracy1+2+3 -> accuracy1+2+3
I0418 08:10:02.896760  7952 net.cpp:122] Setting up accuracy1+2+3
I0418 08:10:02.896760  7952 net.cpp:129] Top shape: (1)
I0418 08:10:02.896760  7952 net.cpp:137] Memory required for data: 763130744
I0418 08:10:02.896760  7952 layer_factory.cpp:58] Creating layer fc2
I0418 08:10:02.896760  7952 net.cpp:84] Creating Layer fc2
I0418 08:10:02.896760  7952 net.cpp:406] fc2 <- scale1+2
I0418 08:10:02.896760  7952 net.cpp:380] fc2 -> fc2
I0418 08:10:02.943634  7952 net.cpp:122] Setting up fc2
I0418 08:10:02.943634  7952 net.cpp:129] Top shape: 1 200 (200)
I0418 08:10:02.943634  7952 net.cpp:137] Memory required for data: 763131544
I0418 08:10:02.943634  7952 layer_factory.cpp:58] Creating layer accuracy1+2
I0418 08:10:02.943634  7952 net.cpp:84] Creating Layer accuracy1+2
I0418 08:10:02.943634  7952 net.cpp:406] accuracy1+2 <- fc2
I0418 08:10:02.943634  7952 net.cpp:406] accuracy1+2 <- label_data_1_split_1
I0418 08:10:02.943634  7952 net.cpp:380] accuracy1+2 -> accuracy1+2
…
